…
stepsize: 3000
snapshot: 0
snapshot_prefix: "basketballDet"
average_loss: 100
iter_size: 2
I0109 13:47:22.498857  2001 solver.cpp:81] Creating training net from train_net file: models/basketball/train.prototxt
I0109 13:47:22.500241  2001 net.cpp:49] Initializing net from parameters:
name: "ZF"
state {
  phase: TRAIN
}
layer {
  name: "input-data"
  type: "Python"
  top: "data"
  top: "im_info"
  top: "gt_boxes"
  python_param {
    module: "roi_data_layer.layer"
    layer: "RoIDataLayer"
    param_str: "\'num_classes\': 2"
  }
}
layer {
  name: "conv1"
  type: "Convolution"
  bottom: "data"
  top: "conv1"
  param {
    lr_mult: 1
  }
  param {
    lr_mult: 2
  }
  convolution_param {
    num_output: 96
    pad: 3
    kernel_size: 7
    stride: 2
  }
}
layer {
  name: "relu1"
  type: "ReLU"
  bottom: "conv1"
  top: "conv1"
}
layer {
  name: "norm1"
  type: "LRN"
  bottom: "conv1"
  top: "norm1"
  lrn_param {
    local_size: 3
    alpha: 5e-05
    beta: 0.75
    norm_region: WITHIN_CHANNEL
    engine: CAFFE
  }
}
layer {
  name: "pool1"
  type: "Pooling"
  bottom: "norm1"
  top: "pool1"
  pooling_param {
    pool: MAX
    kernel_size: 3
    stride: 2
    pad: 1
  }
}
layer {
  name: "conv2"
  type: "Convolution"
  bottom: "pool1"
  top: "conv2"
  param {
    lr_mult: 1
  }
  param {
    lr_mult: 2
  }
  convolution_param {
    num_output: 256
    pad: 2
    kernel_size: 5
    stride: 2
  }
}
layer {
  name: "relu2"
  type: "ReLU"
  bottom: "conv2"
  top: "conv2"
}
layer {
  name: "norm2"
  type: "LRN"
  bottom: "conv2"
  top: "norm2"
  lrn_param {
    local_size: 3
    alpha: 5e-05
    beta: 0.75
    norm_region: WITHIN_CHANNEL
    engine: CAFFE
  }
}
layer {
  name: "pool2"
  type: "Pooling"
  bottom: "norm2"
  top: "pool2"
  pooling_param {
    pool: MAX
    kernel_size: 3
    stride: 2
    pad: 1
  }
}
layer {
  name: "conv3"
  type: "Convolution"
  bottom: "pool2"
  top: "conv3"
  param {
    lr_mult: 1
  }
  param {
    lr_mult: 2
  }
  convolution_param {
    num_output: 384
    pad: 1
    kernel_size: 3
    stride: 1
  }
}
layer {
  name: "relu3"
  type: "ReLU"
  bottom: "conv3"
  top: "conv3"
}
layer {
  name: "conv4"
  type: "Convolution"
  bottom: "conv3"
  top: "conv4"
  param {
    lr_mult: 1
  }
  param {
    lr_mult: 2
  }
  convolution_param {
    num_output: 384
    pad: 1
    kernel_size: 3
    stride: 1
  }
}
layer {
  name: "relu4"
  type: "ReLU"
  bottom: "conv4"
  top: "conv4"
}
layer {
  name: "conv5"
  type: "Convolution"
  bottom: "conv4"
  top: "conv5"
  param {
    lr_mult: 1
  }
  param {
    lr_mult: 2
  }
  convolution_param {
    num_output: 256
    pad: 1
    kernel_size: 3
    stride: 1
  }
}
layer {
  name: "relu5"
  type: "ReLU"
  bottom: "conv5"
  top: "conv5"
}
layer {
  name: "rpn_conv/3x3"
  type: "Convolution"
  bottom: "conv5"
  top: "rpn/output"
  param {
    lr_mult: 1
  }
  param {
    lr_mult: 2
  }
  convolution_param {
    num_output: 256
    pad: 1
    kernel_size: 3
    stride: 1
    weight_filler {
      type: "gaussian"
      std: 0.01
    }
    bias_filler {
      type: "constant"
      value: 0
    }
  }
}
layer {
  name: "rpn_relu/3x3"
  type: "ReLU"
  bottom: "rpn/output"
  top: "rpn/output"
}
layer {
  name: "rpn_cls_score"
  type: "Convolution"
  bottom: "rpn/output"
  top: "rpn_cls_score"
  param {
    lr_mult: 1
  }
  param {
    lr_mult: 2
  }
  convolution_param {
    num_output: 18
    pad: 0
    kernel_size: 1
    stride: 1
    weight_filler {
      type: "gaussian"
      std: 0.01
    }
    bias_filler {
      type: "constant"
      value: 0
    }
  }
}
layer {
  name: "rpn_bbox_pred"
  type: "Convolution"
  bottom: "rpn/output"
  top: "rpn_bbox_pred"
  param {
    lr_mult: 1
  }
  param {
    lr_mult: 2
  }
  convolution_param {
    num_output: 36
    pad: 0
    kernel_size: 1
    stride: 1
    weight_filler {
      type: "gaussian"
      std: 0.01
    }
    bias_filler {
      type: "constant"
      value: 0
    }
  }
}
layer {
  name: "rpn_cls_score_reshape"
  type: "Reshape"
  bottom: "rpn_cls_score"
  top: "rpn_cls_score_reshape"
  reshape_param {
    shape {
      dim: 0
      dim: 2
      dim: -1
      dim: 0
    }
  }
}
layer {
  name: "rpn-data"
  type: "Python"
  bottom: "rpn_cls_score"
  bottom: "gt_boxes"
  bottom: "im_info"
  bottom: "data"
  top: "rpn_labels"
  top: "rpn_bbox_targets"
  top: "rpn_bbox_inside_weights"
  top: "rpn_bbox_outside_weights"
  python_param {
    module: "rpn.anchor_target_layer"
    layer: "AnchorTargetLayer"
    param_str: "\'feat_stride\': 16"
  }
}
layer {
  name: "rpn_loss_cls"
  type: "SoftmaxWithLoss"
  bottom: "rpn_cls_score_reshape"
  bottom: "rpn_labels"
  top: "rpn_cls_loss"
  loss_weight: 1
  propagate_down: true
  propagate_down: false
  loss_param {
    ignore_label: -1
    normalize: true
  }
}
layer {
  name: "rpn_loss_bbox"
  type: "SmoothL1Loss"
  bottom: "rpn_bbox_pred"
  bottom: "rpn_bbox_targets"
  bottom: "rpn_bbox_inside_weights"
  bottom: "rpn_bbox_outside_weights"
  top: "rpn_loss_bbox"
  loss_weight: 1
  smooth_l1_loss_param {
    sigma: 3
  }
}
layer {
  name: "rpn_cls_prob"
  type: "Softmax"
  bottom: "rpn_cls_score_reshape"
  top: "rpn_cls_prob"
}
layer {
  name: "rpn_cls_prob_reshape"
  type: "Reshape"
  bottom: "rpn_cls_prob"
  top: "rpn_cls_prob_reshape"
  reshape_param {
    shape {
      dim: 0
      dim: 18
      dim: -1
      dim: 0
    }
  }
}
layer {
  name: "proposal"
  type: "Python"
  bottom: "rpn_cls_prob_reshape"
  bottom: "rpn_bbox_pred"
  bottom: "im_info"
  top: "rpn_rois"
  python_param {
    module: "rpn.proposal_layer"
    layer: "ProposalLayer"
    param_str: "\'feat_stride\': 16"
  }
}
layer {
  name: "roi-data"
  type: "Python"
  bottom: "rpn_rois"
  bottom: "gt_boxes"
  top: "rois"
  top: "labels"
  top: "bbox_targets"
  top: "bbox_inside_weights"
  top: "bbox_outside_weights"
  python_param {
    module: "rpn.proposal_target_layer"
    layer: "ProposalTargetLayer"
    param_str: "\'num_classes\': 2"
  }
}
layer {
  name: "roi_pool_conv5"
  type: "ROIPooling"
  bottom: "conv5"
  bottom: "rois"
  top: "roi_pool_conv5"
  roi_pooling_param {
    pooled_h: 6
    pooled_w: 6
    spatial_scale: 0.0625
  }
}
layer {
  name: "fc6"
  type: "InnerProduct"
  bottom: "roi_pool_conv5"
  top: "fc6"
  param {
    lr_mult: 1
  }
  param {
    lr_mult: 2
  }
  inner_product_param {
    num_output: 4096
  }
}
layer {
  name: "relu6"
  type: "ReLU"
  bottom: "fc6"
  top: "fc6"
}
layer {
  name: "drop6"
  type: "Dropout"
  bottom: "fc6"
  top: "fc6"
  dropout_param {
    dropout_ratio: 0.5
    scale_train: false
  }
}
layer {
  name: "fc7"
  type: "InnerProduct"
  bottom: "fc6"
  top: "fc7"
  param {
    lr_mult: 1
  }
  param {
    lr_mult: 2
  }
  inner_product_param {
    num_output: 4096
  }
}
layer {
  name: "relu7"
  type: "ReLU"
  bottom: "fc7"
  top: "fc7"
}
layer {
  name: "drop7"
  type: "Dropout"
  bottom: "fc7"
  top: "fc7"
  dropout_param {
    dropout_ratio: 0.5
    scale_train: false
  }
}
layer {
  name: "cls_score_basketball"
  type: "InnerProduct"
  bottom: "fc7"
  top: "cls_score"
  param {
    lr_mult: 1
  }
  param {
    lr_mult: 2
  }
  inner_product_param {
    num_output: 2
    weight_filler {
      type: "gaussian"
      std: 0.01
    }
    bias_filler {
      type: "constant"
      value: 0
    }
  }
}
layer {
  name: "bbox_pred_basketball"
  type: "InnerProduct"
  bottom: "fc7"
  top: "bbox_pred"
  param {
    lr_mult: 1
  }
  param {
    lr_mult: 2
  }
  inner_product_param {
    num_output: 8
    weight_filler {
      type: "gaussian"
      std: 0.001
    }
    bias_filler {
      type: "constant"
      value: 0
    }
  }
}
layer {
  name: "loss_cls"
  type: "SoftmaxWithLoss"
  bottom: "cls_score"
  bottom: "labels"
  top: "cls_loss"
  loss_weight: 1
  propagate_down: true
  propagate_down: false
  loss_param {
    ignore_label: -1
    normalize: true
  }
}
layer {
  name: "loss_bbox"
  type: "SmoothL1Loss"
  bottom: "bbox_pred"
  bottom: "bbox_targets"
  bottom: "bbox_inside_weights"
  bottom: "bbox_outside_weights"
  top: "bbox_loss"
  loss_weight: 1
}
I0109 13:47:22.500854  2001 layer_factory.hpp:77] Creating layer input-data
I0109 13:47:22.931330  2001 net.cpp:106] Creating Layer input-data
I0109 13:47:22.931416  2001 net.cpp:411] input-data -> data
I0109 13:47:22.931452  2001 net.cpp:411] input-data -> im_info
I0109 13:47:22.931463  2001 net.cpp:411] input-data -> gt_boxes
RoiDataLayer: name_to_top: {'gt_boxes': 2, 'data': 0, 'im_info': 1}
I0109 13:47:23.015362  2001 net.cpp:150] Setting up input-data
I0109 13:47:23.015403  2001 net.cpp:157] Top shape: 1 3 600 1000 (1800000)
I0109 13:47:23.015414  2001 net.cpp:157] Top shape: 1 3 (3)
I0109 13:47:23.015444  2001 net.cpp:157] Top shape: 1 4 (4)
I0109 13:47:23.015450  2001 net.cpp:165] Memory required for data: 7200028
I0109 13:47:23.015457  2001 layer_factory.hpp:77] Creating layer data_input-data_0_split
I0109 13:47:23.015487  2001 net.cpp:106] Creating Layer data_input-data_0_split
I0109 13:47:23.015508  2001 net.cpp:454] data_input-data_0_split <- data
I0109 13:47:23.015525  2001 net.cpp:411] data_input-data_0_split -> data_input-data_0_split_0
I0109 13:47:23.015596  2001 net.cpp:411] data_input-data_0_split -> data_input-data_0_split_1
I0109 13:47:23.015645  2001 net.cpp:150] Setting up data_input-data_0_split
I0109 13:47:23.015664  2001 net.cpp:157] Top shape: 1 3 600 1000 (1800000)
I0109 13:47:23.015671  2001 net.cpp:157] Top shape: 1 3 600 1000 (1800000)
I0109 13:47:23.015674  2001 net.cpp:165] Memory required for data: 21600028
I0109 13:47:23.015678  2001 layer_factory.hpp:77] Creating layer im_info_input-data_1_split
I0109 13:47:23.015686  2001 net.cpp:106] Creating Layer im_info_input-data_1_split
I0109 13:47:23.015689  2001 net.cpp:454] im_info_input-data_1_split <- im_info
I0109 13:47:23.015702  2001 net.cpp:411] im_info_input-data_1_split -> im_info_input-data_1_split_0
I0109 13:47:23.015709  2001 net.cpp:411] im_info_input-data_1_split -> im_info_input-data_1_split_1
I0109 13:47:23.015750  2001 net.cpp:150] Setting up im_info_input-data_1_split
I0109 13:47:23.015755  2001 net.cpp:157] Top shape: 1 3 (3)
I0109 13:47:23.015759  2001 net.cpp:157] Top shape: 1 3 (3)
I0109 13:47:23.015763  2001 net.cpp:165] Memory required for data: 21600052
I0109 13:47:23.015765  2001 layer_factory.hpp:77] Creating layer gt_boxes_input-data_2_split
I0109 13:47:23.015770  2001 net.cpp:106] Creating Layer gt_boxes_input-data_2_split
I0109 13:47:23.015820  2001 net.cpp:454] gt_boxes_input-data_2_split <- gt_boxes
I0109 13:47:23.015849  2001 net.cpp:411] gt_boxes_input-data_2_split -> gt_boxes_input-data_2_split_0
I0109 13:47:23.015879  2001 net.cpp:411] gt_boxes_input-data_2_split -> gt_boxes_input-data_2_split_1
I0109 13:47:23.015974  2001 net.cpp:150] Setting up gt_boxes_input-data_2_split
I0109 13:47:23.016003  2001 net.cpp:157] Top shape: 1 4 (4)
I0109 13:47:23.016022  2001 net.cpp:157] Top shape: 1 4 (4)
I0109 13:47:23.016054  2001 net.cpp:165] Memory required for data: 21600084
I0109 13:47:23.016070  2001 layer_factory.hpp:77] Creating layer conv1
I0109 13:47:23.016113  2001 net.cpp:106] Creating Layer conv1
I0109 13:47:23.016140  2001 net.cpp:454] conv1 <- data_input-data_0_split_0
I0109 13:47:23.016166  2001 net.cpp:411] conv1 -> conv1
I0109 13:47:23.017807  2001 net.cpp:150] Setting up conv1
I0109 13:47:23.017848  2001 net.cpp:157] Top shape: 1 96 300 500 (14400000)
I0109 13:47:23.017877  2001 net.cpp:165] Memory required for data: 79200084
I0109 13:47:23.017923  2001 layer_factory.hpp:77] Creating layer relu1
I0109 13:47:23.017963  2001 net.cpp:106] Creating Layer relu1
I0109 13:47:23.017992  2001 net.cpp:454] relu1 <- conv1
I0109 13:47:23.018028  2001 net.cpp:397] relu1 -> conv1 (in-place)
I0109 13:47:23.018055  2001 net.cpp:150] Setting up relu1
I0109 13:47:23.018077  2001 net.cpp:157] Top shape: 1 96 300 500 (14400000)
I0109 13:47:23.018095  2001 net.cpp:165] Memory required for data: 136800084
I0109 13:47:23.018121  2001 layer_factory.hpp:77] Creating layer norm1
I0109 13:47:23.018165  2001 net.cpp:106] Creating Layer norm1
I0109 13:47:23.018198  2001 net.cpp:454] norm1 <- conv1
I0109 13:47:23.018223  2001 net.cpp:411] norm1 -> norm1
I0109 13:47:23.018358  2001 net.cpp:150] Setting up norm1
I0109 13:47:23.018399  2001 net.cpp:157] Top shape: 1 96 300 500 (14400000)
I0109 13:47:23.018429  2001 net.cpp:165] Memory required for data: 194400084
I0109 13:47:23.018446  2001 layer_factory.hpp:77] Creating layer pool1
I0109 13:47:23.018467  2001 net.cpp:106] Creating Layer pool1
I0109 13:47:23.018473  2001 net.cpp:454] pool1 <- norm1
I0109 13:47:23.018499  2001 net.cpp:411] pool1 -> pool1
I0109 13:47:23.018580  2001 net.cpp:150] Setting up pool1
I0109 13:47:23.018604  2001 net.cpp:157] Top shape: 1 96 151 251 (3638496)
I0109 13:47:23.018610  2001 net.cpp:165] Memory required for data: 208954068
I0109 13:47:23.018613  2001 layer_factory.hpp:77] Creating layer conv2
I0109 13:47:23.018626  2001 net.cpp:106] Creating Layer conv2
I0109 13:47:23.018630  2001 net.cpp:454] conv2 <- pool1
I0109 13:47:23.018661  2001 net.cpp:411] conv2 -> conv2
I0109 13:47:23.020658  2001 net.cpp:150] Setting up conv2
I0109 13:47:23.020690  2001 net.cpp:157] Top shape: 1 256 76 126 (2451456)
I0109 13:47:23.020706  2001 net.cpp:165] Memory required for data: 218759892
I0109 13:47:23.020750  2001 layer_factory.hpp:77] Creating layer relu2
I0109 13:47:23.020786  2001 net.cpp:106] Creating Layer relu2
I0109 13:47:23.020818  2001 net.cpp:454] relu2 <- conv2
I0109 13:47:23.020877  2001 net.cpp:397] relu2 -> conv2 (in-place)
I0109 13:47:23.020906  2001 net.cpp:150] Setting up relu2
I0109 13:47:23.020915  2001 net.cpp:157] Top shape: 1 256 76 126 (2451456)
I0109 13:47:23.020918  2001 net.cpp:165] Memory required for data: 228565716
I0109 13:47:23.020939  2001 layer_factory.hpp:77] Creating layer norm2
I0109 13:47:23.020973  2001 net.cpp:106] Creating Layer norm2
I0109 13:47:23.020998  2001 net.cpp:454] norm2 <- conv2
I0109 13:47:23.021013  2001 net.cpp:411] norm2 -> norm2
I0109 13:47:23.021140  2001 net.cpp:150] Setting up norm2
I0109 13:47:23.021180  2001 net.cpp:157] Top shape: 1 256 76 126 (2451456)
I0109 13:47:23.021211  2001 net.cpp:165] Memory required for data: 238371540
I0109 13:47:23.021231  2001 layer_factory.hpp:77] Creating layer pool2
I0109 13:47:23.021257  2001 net.cpp:106] Creating Layer pool2
I0109 13:47:23.021273  2001 net.cpp:454] pool2 <- norm2
I0109 13:47:23.021293  2001 net.cpp:411] pool2 -> pool2
I0109 13:47:23.021385  2001 net.cpp:150] Setting up pool2
I0109 13:47:23.021414  2001 net.cpp:157] Top shape: 1 256 39 64 (638976)
I0109 13:47:23.021431  2001 net.cpp:165] Memory required for data: 240927444
I0109 13:47:23.021457  2001 layer_factory.hpp:77] Creating layer conv3
I0109 13:47:23.021502  2001 net.cpp:106] Creating Layer conv3
I0109 13:47:23.021533  2001 net.cpp:454] conv3 <- pool2
I0109 13:47:23.021559  2001 net.cpp:411] conv3 -> conv3
I0109 13:47:23.025483  2001 net.cpp:150] Setting up conv3
I0109 13:47:23.025526  2001 net.cpp:157] Top shape: 1 384 39 64 (958464)
I0109 13:47:23.025550  2001 net.cpp:165] Memory required for data: 244761300
I0109 13:47:23.025595  2001 layer_factory.hpp:77] Creating layer relu3
I0109 13:47:23.025635  2001 net.cpp:106] Creating Layer relu3
I0109 13:47:23.025669  2001 net.cpp:454] relu3 <- conv3
I0109 13:47:23.025696  2001 net.cpp:397] relu3 -> conv3 (in-place)
I0109 13:47:23.025734  2001 net.cpp:150] Setting up relu3
I0109 13:47:23.025754  2001 net.cpp:157] Top shape: 1 384 39 64 (958464)
I0109 13:47:23.025769  2001 net.cpp:165] Memory required for data: 248595156
I0109 13:47:23.025787  2001 layer_factory.hpp:77] Creating layer conv4
I0109 13:47:23.025820  2001 net.cpp:106] Creating Layer conv4
I0109 13:47:23.025851  2001 net.cpp:454] conv4 <- conv3
I0109 13:47:23.025880  2001 net.cpp:411] conv4 -> conv4
I0109 13:47:23.029700  2001 net.cpp:150] Setting up conv4
I0109 13:47:23.029733  2001 net.cpp:157] Top shape: 1 384 39 64 (958464)
I0109 13:47:23.029750  2001 net.cpp:165] Memory required for data: 252429012
I0109 13:47:23.029790  2001 layer_factory.hpp:77] Creating layer relu4
I0109 13:47:23.029814  2001 net.cpp:106] Creating Layer relu4
I0109 13:47:23.029846  2001 net.cpp:454] relu4 <- conv4
I0109 13:47:23.029875  2001 net.cpp:397] relu4 -> conv4 (in-place)
I0109 13:47:23.029899  2001 net.cpp:150] Setting up relu4
I0109 13:47:23.029933  2001 net.cpp:157] Top shape: 1 384 39 64 (958464)
I0109 13:47:23.029949  2001 net.cpp:165] Memory required for data: 256262868
I0109 13:47:23.029975  2001 layer_factory.hpp:77] Creating layer conv5
I0109 13:47:23.030028  2001 net.cpp:106] Creating Layer conv5
I0109 13:47:23.030059  2001 net.cpp:454] conv5 <- conv4
I0109 13:47:23.030089  2001 net.cpp:411] conv5 -> conv5
I0109 13:47:23.032704  2001 net.cpp:150] Setting up conv5
I0109 13:47:23.032737  2001 net.cpp:157] Top shape: 1 256 39 64 (638976)
I0109 13:47:23.032753  2001 net.cpp:165] Memory required for data: 258818772
I0109 13:47:23.032804  2001 layer_factory.hpp:77] Creating layer relu5
I0109 13:47:23.032831  2001 net.cpp:106] Creating Layer relu5
I0109 13:47:23.032840  2001 net.cpp:454] relu5 <- conv5
I0109 13:47:23.032845  2001 net.cpp:397] relu5 -> conv5 (in-place)
I0109 13:47:23.032872  2001 net.cpp:150] Setting up relu5
I0109 13:47:23.032904  2001 net.cpp:157] Top shape: 1 256 39 64 (638976)
I0109 13:47:23.032928  2001 net.cpp:165] Memory required for data: 261374676
I0109 13:47:23.032937  2001 layer_factory.hpp:77] Creating layer conv5_relu5_0_split
I0109 13:47:23.032943  2001 net.cpp:106] Creating Layer conv5_relu5_0_split
I0109 13:47:23.032963  2001 net.cpp:454] conv5_relu5_0_split <- conv5
I0109 13:47:23.033007  2001 net.cpp:411] conv5_relu5_0_split -> conv5_relu5_0_split_0
I0109 13:47:23.033035  2001 net.cpp:411] conv5_relu5_0_split -> conv5_relu5_0_split_1
I0109 13:47:23.033077  2001 net.cpp:150] Setting up conv5_relu5_0_split
I0109 13:47:23.033097  2001 net.cpp:157] Top shape: 1 256 39 64 (638976)
I0109 13:47:23.033105  2001 net.cpp:157] Top shape: 1 256 39 64 (638976)
I0109 13:47:23.033107  2001 net.cpp:165] Memory required for data: 266486484
I0109 13:47:23.033112  2001 layer_factory.hpp:77] Creating layer rpn_conv/3x3
I0109 13:47:23.033124  2001 net.cpp:106] Creating Layer rpn_conv/3x3
I0109 13:47:23.033148  2001 net.cpp:454] rpn_conv/3x3 <- conv5_relu5_0_split_0
I0109 13:47:23.033187  2001 net.cpp:411] rpn_conv/3x3 -> rpn/output
I0109 13:47:23.040402  2001 net.cpp:150] Setting up rpn_conv/3x3
I0109 13:47:23.040428  2001 net.cpp:157] Top shape: 1 256 39 64 (638976)
I0109 13:47:23.040434  2001 net.cpp:165] Memory required for data: 269042388
I0109 13:47:23.040441  2001 layer_factory.hpp:77] Creating layer rpn_relu/3x3
I0109 13:47:23.040486  2001 net.cpp:106] Creating Layer rpn_relu/3x3
I0109 13:47:23.040515  2001 net.cpp:454] rpn_relu/3x3 <- rpn/output
I0109 13:47:23.040529  2001 net.cpp:397] rpn_relu/3x3 -> rpn/output (in-place)
I0109 13:47:23.040536  2001 net.cpp:150] Setting up rpn_relu/3x3
I0109 13:47:23.040560  2001 net.cpp:157] Top shape: 1 256 39 64 (638976)
I0109 13:47:23.040591  2001 net.cpp:165] Memory required for data: 271598292
I0109 13:47:23.040616  2001 layer_factory.hpp:77] Creating layer rpn/output_rpn_relu/3x3_0_split
I0109 13:47:23.040627  2001 net.cpp:106] Creating Layer rpn/output_rpn_relu/3x3_0_split
I0109 13:47:23.040630  2001 net.cpp:454] rpn/output_rpn_relu/3x3_0_split <- rpn/output
I0109 13:47:23.040639  2001 net.cpp:411] rpn/output_rpn_relu/3x3_0_split -> rpn/output_rpn_relu/3x3_0_split_0
I0109 13:47:23.040673  2001 net.cpp:411] rpn/output_rpn_relu/3x3_0_split -> rpn/output_rpn_relu/3x3_0_split_1
I0109 13:47:23.040747  2001 net.cpp:150] Setting up rpn/output_rpn_relu/3x3_0_split
I0109 13:47:23.040771  2001 net.cpp:157] Top shape: 1 256 39 64 (638976)
I0109 13:47:23.040777  2001 net.cpp:157] Top shape: 1 256 39 64 (638976)
I0109 13:47:23.040781  2001 net.cpp:165] Memory required for data: 276710100
I0109 13:47:23.040784  2001 layer_factory.hpp:77] Creating layer rpn_cls_score
I0109 13:47:23.040824  2001 net.cpp:106] Creating Layer rpn_cls_score
I0109 13:47:23.040858  2001 net.cpp:454] rpn_cls_score <- rpn/output_rpn_relu/3x3_0_split_0
I0109 13:47:23.040891  2001 net.cpp:411] rpn_cls_score -> rpn_cls_score
I0109 13:47:23.041205  2001 net.cpp:150] Setting up rpn_cls_score
I0109 13:47:23.041235  2001 net.cpp:157] Top shape: 1 18 39 64 (44928)
I0109 13:47:23.041251  2001 net.cpp:165] Memory required for data: 276889812
I0109 13:47:23.041292  2001 layer_factory.hpp:77] Creating layer rpn_cls_score_rpn_cls_score_0_split
I0109 13:47:23.041329  2001 net.cpp:106] Creating Layer rpn_cls_score_rpn_cls_score_0_split
I0109 13:47:23.041348  2001 net.cpp:454] rpn_cls_score_rpn_cls_score_0_split <- rpn_cls_score
I0109 13:47:23.041378  2001 net.cpp:411] rpn_cls_score_rpn_cls_score_0_split -> rpn_cls_score_rpn_cls_score_0_split_0
I0109 13:47:23.041422  2001 net.cpp:411] rpn_cls_score_rpn_cls_score_0_split -> rpn_cls_score_rpn_cls_score_0_split_1
I0109 13:47:23.041492  2001 net.cpp:150] Setting up rpn_cls_score_rpn_cls_score_0_split
I0109 13:47:23.041522  2001 net.cpp:157] Top shape: 1 18 39 64 (44928)
I0109 13:47:23.041543  2001 net.cpp:157] Top shape: 1 18 39 64 (44928)
I0109 13:47:23.041571  2001 net.cpp:165] Memory required for data: 277249236
I0109 13:47:23.041589  2001 layer_factory.hpp:77] Creating layer rpn_bbox_pred
I0109 13:47:23.041645  2001 net.cpp:106] Creating Layer rpn_bbox_pred
I0109 13:47:23.041677  2001 net.cpp:454] rpn_bbox_pred <- rpn/output_rpn_relu/3x3_0_split_1
I0109 13:47:23.041712  2001 net.cpp:411] rpn_bbox_pred -> rpn_bbox_pred
I0109 13:47:23.042057  2001 net.cpp:150] Setting up rpn_bbox_pred
I0109 13:47:23.042088  2001 net.cpp:157] Top shape: 1 36 39 64 (89856)
I0109 13:47:23.042104  2001 net.cpp:165] Memory required for data: 277608660
I0109 13:47:23.042145  2001 layer_factory.hpp:77] Creating layer rpn_bbox_pred_rpn_bbox_pred_0_split
I0109 13:47:23.042168  2001 net.cpp:106] Creating Layer rpn_bbox_pred_rpn_bbox_pred_0_split
I0109 13:47:23.042201  2001 net.cpp:454] rpn_bbox_pred_rpn_bbox_pred_0_split <- rpn_bbox_pred
I0109 13:47:23.042229  2001 net.cpp:411] rpn_bbox_pred_rpn_bbox_pred_0_split -> rpn_bbox_pred_rpn_bbox_pred_0_split_0
I0109 13:47:23.042271  2001 net.cpp:411] rpn_bbox_pred_rpn_bbox_pred_0_split -> rpn_bbox_pred_rpn_bbox_pred_0_split_1
I0109 13:47:23.042340  2001 net.cpp:150] Setting up rpn_bbox_pred_rpn_bbox_pred_0_split
I0109 13:47:23.042371  2001 net.cpp:157] Top shape: 1 36 39 64 (89856)
I0109 13:47:23.042392  2001 net.cpp:157] Top shape: 1 36 39 64 (89856)
I0109 13:47:23.042418  2001 net.cpp:165] Memory required for data: 278327508
I0109 13:47:23.042435  2001 layer_factory.hpp:77] Creating layer rpn_cls_score_reshape
I0109 13:47:23.042462  2001 net.cpp:106] Creating Layer rpn_cls_score_reshape
I0109 13:47:23.042492  2001 net.cpp:454] rpn_cls_score_reshape <- rpn_cls_score_rpn_cls_score_0_split_0
I0109 13:47:23.042526  2001 net.cpp:411] rpn_cls_score_reshape -> rpn_cls_score_reshape
I0109 13:47:23.042598  2001 net.cpp:150] Setting up rpn_cls_score_reshape
I0109 13:47:23.042634  2001 net.cpp:157] Top shape: 1 2 351 64 (44928)
I0109 13:47:23.042649  2001 net.cpp:165] Memory required for data: 278507220
I0109 13:47:23.042677  2001 layer_factory.hpp:77] Creating layer rpn_cls_score_reshape_rpn_cls_score_reshape_0_split
I0109 13:47:23.042702  2001 net.cpp:106] Creating Layer rpn_cls_score_reshape_rpn_cls_score_reshape_0_split
I0109 13:47:23.042732  2001 net.cpp:454] rpn_cls_score_reshape_rpn_cls_score_reshape_0_split <- rpn_cls_score_reshape
I0109 13:47:23.042755  2001 net.cpp:411] rpn_cls_score_reshape_rpn_cls_score_reshape_0_split -> rpn_cls_score_reshape_rpn_cls_score_reshape_0_split_0
I0109 13:47:23.042803  2001 net.cpp:411] rpn_cls_score_reshape_rpn_cls_score_reshape_0_split -> rpn_cls_score_reshape_rpn_cls_score_reshape_0_split_1
I0109 13:47:23.042894  2001 net.cpp:150] Setting up rpn_cls_score_reshape_rpn_cls_score_reshape_0_split
I0109 13:47:23.042924  2001 net.cpp:157] Top shape: 1 2 351 64 (44928)
I0109 13:47:23.042945  2001 net.cpp:157] Top shape: 1 2 351 64 (44928)
I0109 13:47:23.042974  2001 net.cpp:165] Memory required for data: 278866644
I0109 13:47:23.042991  2001 layer_factory.hpp:77] Creating layer rpn-data
I0109 13:47:23.045924  2001 net.cpp:106] Creating Layer rpn-data
I0109 13:47:23.045953  2001 net.cpp:454] rpn-data <- rpn_cls_score_rpn_cls_score_0_split_1
I0109 13:47:23.045976  2001 net.cpp:454] rpn-data <- gt_boxes_input-data_2_split_0
I0109 13:47:23.046008  2001 net.cpp:454] rpn-data <- im_info_input-data_1_split_0
I0109 13:47:23.046038  2001 net.cpp:454] rpn-data <- data_input-data_0_split_1
I0109 13:47:23.046066  2001 net.cpp:411] rpn-data -> rpn_labels
I0109 13:47:23.046128  2001 net.cpp:411] rpn-data -> rpn_bbox_targets
I0109 13:47:23.046170  2001 net.cpp:411] rpn-data -> rpn_bbox_inside_weights
I0109 13:47:23.046218  2001 net.cpp:411] rpn-data -> rpn_bbox_outside_weights
I0109 13:47:23.047801  2001 net.cpp:150] Setting up rpn-data
I0109 13:47:23.047834  2001 net.cpp:157] Top shape: 1 1 351 64 (22464)
I0109 13:47:23.047857  2001 net.cpp:157] Top shape: 1 36 39 64 (89856)
I0109 13:47:23.047888  2001 net.cpp:157] Top shape: 1 36 39 64 (89856)
I0109 13:47:23.047919  2001 net.cpp:157] Top shape: 1 36 39 64 (89856)
I0109 13:47:23.047942  2001 net.cpp:165] Memory required for data: 280034772
I0109 13:47:23.047950  2001 layer_factory.hpp:77] Creating layer rpn_loss_cls
I0109 13:47:23.047960  2001 net.cpp:106] Creating Layer rpn_loss_cls
I0109 13:47:23.047976  2001 net.cpp:454] rpn_loss_cls <- rpn_cls_score_reshape_rpn_cls_score_reshape_0_split_0
I0109 13:47:23.047986  2001 net.cpp:454] rpn_loss_cls <- rpn_labels
…
I0109 13:47:23.049235  2001 net.cpp:157] Top shape: (1)
I0109 13:47:23.049252  2001 net.cpp:160]     with loss weight 1
I0109 13:47:23.049288  2001 net.cpp:165] Memory required for data: 280034780
I0109 13:47:23.049304  2001 layer_factory.hpp:77] Creating layer rpn_cls_prob
I0109 13:47:23.049348  2001 net.cpp:106] Creating Layer rpn_cls_prob
I0109 13:47:23.049368  2001 net.cpp:454] rpn_cls_prob <- rpn_cls_score_reshape_rpn_cls_score_reshape_0_split_1
I0109 13:47:23.049391  2001 net.cpp:411] rpn_cls_prob -> rpn_cls_prob
I0109 13:47:23.049500  2001 net.cpp:150] Setting up rpn_cls_prob
I0109 13:47:23.049533  2001 net.cpp:157] Top shape: 1 2 351 64 (44928)
I0109 13:47:23.049554  2001 net.cpp:165] Memory required for data: 280214492
I0109 13:47:23.049571  2001 layer_factory.hpp:77] Creating layer rpn_cls_prob_reshape
I0109 13:47:23.049610  2001 net.cpp:106] Creating Layer rpn_cls_prob_reshape
I0109 13:47:23.049638  2001 net.cpp:454] rpn_cls_prob_reshape <- rpn_cls_prob
I0109 13:47:23.049666  2001 net.cpp:411] rpn_cls_prob_reshape -> rpn_cls_prob_reshape
I0109 13:47:23.049739  2001 net.cpp:150] Setting up rpn_cls_prob_reshape
I0109 13:47:23.049769  2001 net.cpp:157] Top shape: 1 18 39 64 (44928)
I0109 13:47:23.049785  2001 net.cpp:165] Memory required for data: 280394204
I0109 13:47:23.049818  2001 layer_factory.hpp:77] Creating layer proposal
I0109 13:47:23.057683  2001 net.cpp:106] Creating Layer proposal
I0109 13:47:23.057713  2001 net.cpp:454] proposal <- rpn_cls_prob_reshape
I0109 13:47:23.057734  2001 net.cpp:454] proposal <- rpn_bbox_pred_rpn_bbox_pred_0_split_1
I0109 13:47:23.057766  2001 net.cpp:454] proposal <- im_info_input-data_1_split_1
I0109 13:47:23.057795  2001 net.cpp:411] proposal -> rpn_rois
I0109 13:47:23.058533  2001 net.cpp:150] Setting up proposal
I0109 13:47:23.058567  2001 net.cpp:157] Top shape: 1 5 (5)
I0109 13:47:23.058583  2001 net.cpp:165] Memory required for data: 280394224
I0109 13:47:23.058616  2001 layer_factory.hpp:77] Creating layer roi-data
I0109 13:47:23.059394  2001 net.cpp:106] Creating Layer roi-data
I0109 13:47:23.059423  2001 net.cpp:454] roi-data <- rpn_rois
I0109 13:47:23.059443  2001 net.cpp:454] roi-data <- gt_boxes_input-data_2_split_1
I0109 13:47:23.059484  2001 net.cpp:411] roi-data -> rois
I0109 13:47:23.059514  2001 net.cpp:411] roi-data -> labels
I0109 13:47:23.059590  2001 net.cpp:411] roi-data -> bbox_targets
I0109 13:47:23.059629  2001 net.cpp:411] roi-data -> bbox_inside_weights
I0109 13:47:23.059659  2001 net.cpp:411] roi-data -> bbox_outside_weights
I0109 13:47:23.060096  2001 net.cpp:150] Setting up roi-data
I0109 13:47:23.060127  2001 net.cpp:157] Top shape: 1 5 (5)
I0109 13:47:23.060147  2001 net.cpp:157] Top shape: 1 1 (1)
I0109 13:47:23.060179  2001 net.cpp:157] Top shape: 1 8 (8)
I0109 13:47:23.060197  2001 net.cpp:157] Top shape: 1 8 (8)
I0109 13:47:23.060230  2001 net.cpp:157] Top shape: 1 8 (8)
I0109 13:47:23.060245  2001 net.cpp:165] Memory required for data: 280394344
I0109 13:47:23.060276  2001 layer_factory.hpp:77] Creating layer roi_pool_conv5
I0109 13:47:23.060302  2001 net.cpp:106] Creating Layer roi_pool_conv5
I0109 13:47:23.060331  2001 net.cpp:454] roi_pool_conv5 <- conv5_relu5_0_split_1
I0109 13:47:23.060353  2001 net.cpp:454] roi_pool_conv5 <- rois
I0109 13:47:23.060390  2001 net.cpp:411] roi_pool_conv5 -> roi_pool_conv5
I0109 13:47:23.060420  2001 roi_pooling_layer.cpp:30] Spatial scale: 0.0625
I0109 13:47:23.060508  2001 net.cpp:150] Setting up roi_pool_conv5
I0109 13:47:23.060540  2001 net.cpp:157] Top shape: 1 256 6 6 (9216)
I0109 13:47:23.060554  2001 net.cpp:165] Memory required for data: 280431208
I0109 13:47:23.060585  2001 layer_factory.hpp:77] Creating layer fc6
I0109 13:47:23.060611  2001 net.cpp:106] Creating Layer fc6
I0109 13:47:23.060642  2001 net.cpp:454] fc6 <- roi_pool_conv5
I0109 13:47:23.060665  2001 net.cpp:411] fc6 -> fc6
I0109 13:47:23.195375  2001 net.cpp:150] Setting up fc6
I0109 13:47:23.195446  2001 net.cpp:157] Top shape: 1 4096 (4096)
I0109 13:47:23.195461  2001 net.cpp:165] Memory required for data: 280447592
I0109 13:47:23.195521  2001 layer_factory.hpp:77] Creating layer relu6
I0109 13:47:23.195585  2001 net.cpp:106] Creating Layer relu6
I0109 13:47:23.195607  2001 net.cpp:454] relu6 <- fc6
I0109 13:47:23.195621  2001 net.cpp:397] relu6 -> fc6 (in-place)
I0109 13:47:23.195633  2001 net.cpp:150] Setting up relu6
I0109 13:47:23.195658  2001 net.cpp:157] Top shape: 1 4096 (4096)
I0109 13:47:23.195688  2001 net.cpp:165] Memory required for data: 280463976
I0109 13:47:23.195709  2001 layer_factory.hpp:77] Creating layer drop6
I0109 13:47:23.195746  2001 net.cpp:106] Creating Layer drop6
I0109 13:47:23.195765  2001 net.cpp:454] drop6 <- fc6
I0109 13:47:23.195785  2001 net.cpp:397] drop6 -> fc6 (in-place)
I0109 13:47:23.195855  2001 net.cpp:150] Setting up drop6
I0109 13:47:23.195885  2001 net.cpp:157] Top shape: 1 4096 (4096)
I0109 13:47:23.195940  2001 net.cpp:165] Memory required for data: 280480360
I0109 13:47:23.195956  2001 layer_factory.hpp:77] Creating layer fc7
I0109 13:47:23.195986  2001 net.cpp:106] Creating Layer fc7
I0109 13:47:23.195999  2001 net.cpp:454] fc7 <- fc6
I0109 13:47:23.196043  2001 net.cpp:411] fc7 -> fc7
I0109 13:47:23.257036  2001 net.cpp:150] Setting up fc7
I0109 13:47:23.257093  2001 net.cpp:157] Top shape: 1 4096 (4096)
I0109 13:47:23.257099  2001 net.cpp:165] Memory required for data: 280496744
I0109 13:47:23.257114  2001 layer_factory.hpp:77] Creating layer relu7
I0109 13:47:23.257153  2001 net.cpp:106] Creating Layer relu7
I0109 13:47:23.257186  2001 net.cpp:454] relu7 <- fc7
I0109 13:47:23.257241  2001 net.cpp:397] relu7 -> fc7 (in-place)
I0109 13:47:23.257277  2001 net.cpp:150] Setting up relu7
I0109 13:47:23.257297  2001 net.cpp:157] Top shape: 1 4096 (4096)
I0109 13:47:23.257313  2001 net.cpp:165] Memory required for data: 280513128
I0109 13:47:23.257330  2001 layer_factory.hpp:77] Creating layer drop7
I0109 13:47:23.257355  2001 net.cpp:106] Creating Layer drop7
I0109 13:47:23.257390  2001 net.cpp:454] drop7 <- fc7
I0109 13:47:23.257412  2001 net.cpp:397] drop7 -> fc7 (in-place)
I0109 13:47:23.257477  2001 net.cpp:150] Setting up drop7
I0109 13:47:23.257499  2001 net.cpp:157] Top shape: 1 4096 (4096)
I0109 13:47:23.257505  2001 net.cpp:165] Memory required for data: 280529512
I0109 13:47:23.257509  2001 layer_factory.hpp:77] Creating layer fc7_drop7_0_split
I0109 13:47:23.257517  2001 net.cpp:106] Creating Layer fc7_drop7_0_split
I0109 13:47:23.257520  2001 net.cpp:454] fc7_drop7_0_split <- fc7
I0109 13:47:23.257527  2001 net.cpp:411] fc7_drop7_0_split -> fc7_drop7_0_split_0
I0109 13:47:23.257562  2001 net.cpp:411] fc7_drop7_0_split -> fc7_drop7_0_split_1
I0109 13:47:23.257665  2001 net.cpp:150] Setting up fc7_drop7_0_split
I0109 13:47:23.257695  2001 net.cpp:157] Top shape: 1 4096 (4096)
I0109 13:47:23.257728  2001 net.cpp:157] Top shape: 1 4096 (4096)
I0109 13:47:23.257748  2001 net.cpp:165] Memory required for data: 280562280
I0109 13:47:23.257761  2001 layer_factory.hpp:77] Creating layer cls_score_basketball
I0109 13:47:23.257798  2001 net.cpp:106] Creating Layer cls_score_basketball
I0109 13:47:23.257825  2001 net.cpp:454] cls_score_basketball <- fc7_drop7_0_split_0
I0109 13:47:23.257870  2001 net.cpp:411] cls_score_basketball -> cls_score
I0109 13:47:23.258093  2001 net.cpp:150] Setting up cls_score_basketball
I0109 13:47:23.258117  2001 net.cpp:157] Top shape: 1 2 (2)
I0109 13:47:23.258122  2001 net.cpp:165] Memory required for data: 280562288
I0109 13:47:23.258129  2001 layer_factory.hpp:77] Creating layer bbox_pred_basketball
I0109 13:47:23.258141  2001 net.cpp:106] Creating Layer bbox_pred_basketball
I0109 13:47:23.258163  2001 net.cpp:454] bbox_pred_basketball <- fc7_drop7_0_split_1
I0109 13:47:23.258205  2001 net.cpp:411] bbox_pred_basketball -> bbox_pred
I0109 13:47:23.258673  2001 net.cpp:150] Setting up bbox_pred_basketball
I0109 13:47:23.258697  2001 net.cpp:157] Top shape: 1 8 (8)
I0109 13:47:23.258703  2001 net.cpp:165] Memory required for data: 280562320
I0109 13:47:23.258710  2001 layer_factory.hpp:77] Creating layer loss_cls
I0109 13:47:23.258724  2001 net.cpp:106] Creating Layer loss_cls
I0109 13:47:23.258746  2001 net.cpp:454] loss_cls <- cls_score
I0109 13:47:23.258783  2001 net.cpp:454] loss_cls <- labels
I0109 13:47:23.258827  2001 net.cpp:411] loss_cls -> cls_loss
…
