…
stepsize: 3000
snapshot: 0
snapshot_prefix: "basketballDet"
average_loss: 100
iter_size: 2
I0109 14:50:43.178551  4725 solver.cpp:81] Creating training net from train_net file: models/basketball/train.prototxt
I0109 14:50:43.179126  4725 net.cpp:49] Initializing net from parameters:
name: "ZF"
state {
  phase: TRAIN
}
layer {
  name: "input-data"
  type: "Python"
  top: "data"
  top: "im_info"
  top: "gt_boxes"
  python_param {
    module: "roi_data_layer.layer"
    layer: "RoIDataLayer"
    param_str: "\'num_classes\': 2"
  }
}
layer {
  name: "conv1"
  type: "Convolution"
  bottom: "data"
  top: "conv1"
  param {
    lr_mult: 1
  }
  param {
    lr_mult: 2
  }
  convolution_param {
    num_output: 96
    pad: 3
    kernel_size: 7
    stride: 2
  }
}
layer {
  name: "relu1"
  type: "ReLU"
  bottom: "conv1"
  top: "conv1"
}
layer {
  name: "norm1"
  type: "LRN"
  bottom: "conv1"
  top: "norm1"
  lrn_param {
    local_size: 3
    alpha: 5e-05
    beta: 0.75
    norm_region: WITHIN_CHANNEL
    engine: CAFFE
  }
}
layer {
  name: "pool1"
  type: "Pooling"
  bottom: "norm1"
  top: "pool1"
  pooling_param {
    pool: MAX
    kernel_size: 3
    stride: 2
    pad: 1
  }
}
layer {
  name: "conv2"
  type: "Convolution"
  bottom: "pool1"
  top: "conv2"
  param {
    lr_mult: 1
  }
  param {
    lr_mult: 2
  }
  convolution_param {
    num_output: 256
    pad: 2
    kernel_size: 5
    stride: 2
  }
}
layer {
  name: "relu2"
  type: "ReLU"
  bottom: "conv2"
  top: "conv2"
}
layer {
  name: "norm2"
  type: "LRN"
  bottom: "conv2"
  top: "norm2"
  lrn_param {
    local_size: 3
    alpha: 5e-05
    beta: 0.75
    norm_region: WITHIN_CHANNEL
    engine: CAFFE
  }
}
layer {
  name: "pool2"
  type: "Pooling"
  bottom: "norm2"
  top: "pool2"
  pooling_param {
    pool: MAX
    kernel_size: 3
    stride: 2
    pad: 1
  }
}
layer {
  name: "conv3"
  type: "Convolution"
  bottom: "pool2"
  top: "conv3"
  param {
    lr_mult: 1
  }
  param {
    lr_mult: 2
  }
  convolution_param {
    num_output: 384
    pad: 1
    kernel_size: 3
    stride: 1
  }
}
layer {
  name: "relu3"
  type: "ReLU"
  bottom: "conv3"
  top: "conv3"
}
layer {
  name: "conv4"
  type: "Convolution"
  bottom: "conv3"
  top: "conv4"
  param {
    lr_mult: 1
  }
  param {
    lr_mult: 2
  }
  convolution_param {
    num_output: 384
    pad: 1
    kernel_size: 3
    stride: 1
  }
}
layer {
  name: "relu4"
  type: "ReLU"
  bottom: "conv4"
  top: "conv4"
}
layer {
  name: "conv5"
  type: "Convolution"
  bottom: "conv4"
  top: "conv5"
  param {
    lr_mult: 1
  }
  param {
    lr_mult: 2
  }
  convolution_param {
    num_output: 256
    pad: 1
    kernel_size: 3
    stride: 1
  }
}
layer {
  name: "relu5"
  type: "ReLU"
  bottom: "conv5"
  top: "conv5"
}
layer {
  name: "rpn_conv/3x3"
  type: "Convolution"
  bottom: "conv5"
  top: "rpn/output"
  param {
    lr_mult: 1
  }
  param {
    lr_mult: 2
  }
  convolution_param {
    num_output: 256
    pad: 1
    kernel_size: 3
    stride: 1
    weight_filler {
      type: "gaussian"
      std: 0.01
    }
    bias_filler {
      type: "constant"
      value: 0
    }
  }
}
layer {
  name: "rpn_relu/3x3"
  type: "ReLU"
  bottom: "rpn/output"
  top: "rpn/output"
}
layer {
  name: "rpn_cls_score"
  type: "Convolution"
  bottom: "rpn/output"
  top: "rpn_cls_score"
  param {
    lr_mult: 1
  }
  param {
    lr_mult: 2
  }
  convolution_param {
    num_output: 18
    pad: 0
    kernel_size: 1
    stride: 1
    weight_filler {
      type: "gaussian"
      std: 0.01
    }
    bias_filler {
      type: "constant"
      value: 0
    }
  }
}
layer {
  name: "rpn_bbox_pred"
  type: "Convolution"
  bottom: "rpn/output"
  top: "rpn_bbox_pred"
  param {
    lr_mult: 1
  }
  param {
    lr_mult: 2
  }
  convolution_param {
    num_output: 36
    pad: 0
    kernel_size: 1
    stride: 1
    weight_filler {
      type: "gaussian"
      std: 0.01
    }
    bias_filler {
      type: "constant"
      value: 0
    }
  }
}
layer {
  name: "rpn_cls_score_reshape"
  type: "Reshape"
  bottom: "rpn_cls_score"
  top: "rpn_cls_score_reshape"
  reshape_param {
    shape {
      dim: 0
      dim: 2
      dim: -1
      dim: 0
    }
  }
}
layer {
  name: "rpn-data"
  type: "Python"
  bottom: "rpn_cls_score"
  bottom: "gt_boxes"
  bottom: "im_info"
  bottom: "data"
  top: "rpn_labels"
  top: "rpn_bbox_targets"
  top: "rpn_bbox_inside_weights"
  top: "rpn_bbox_outside_weights"
  python_param {
    module: "rpn.anchor_target_layer"
    layer: "AnchorTargetLayer"
    param_str: "\'feat_stride\': 16"
  }
}
layer {
  name: "rpn_loss_cls"
  type: "SoftmaxWithLoss"
  bottom: "rpn_cls_score_reshape"
  bottom: "rpn_labels"
  top: "rpn_cls_loss"
  loss_weight: 1
  propagate_down: true
  propagate_down: false
  loss_param {
    ignore_label: -1
    normalize: true
  }
}
layer {
  name: "rpn_loss_bbox"
  type: "SmoothL1Loss"
  bottom: "rpn_bbox_pred"
  bottom: "rpn_bbox_targets"
  bottom: "rpn_bbox_inside_weights"
  bottom: "rpn_bbox_outside_weights"
  top: "rpn_loss_bbox"
  loss_weight: 1
  smooth_l1_loss_param {
    sigma: 3
  }
}
layer {
  name: "rpn_cls_prob"
  type: "Softmax"
  bottom: "rpn_cls_score_reshape"
  top: "rpn_cls_prob"
}
layer {
  name: "rpn_cls_prob_reshape"
  type: "Reshape"
  bottom: "rpn_cls_prob"
  top: "rpn_cls_prob_reshape"
  reshape_param {
    shape {
      dim: 0
      dim: 18
      dim: -1
      dim: 0
    }
  }
}
layer {
  name: "proposal"
  type: "Python"
  bottom: "rpn_cls_prob_reshape"
  bottom: "rpn_bbox_pred"
  bottom: "im_info"
  top: "rpn_rois"
  python_param {
    module: "rpn.proposal_layer"
    layer: "ProposalLayer"
    param_str: "\'feat_stride\': 16"
  }
}
layer {
  name: "roi-data"
  type: "Python"
  bottom: "rpn_rois"
  bottom: "gt_boxes"
  top: "rois"
  top: "labels"
  top: "bbox_targets"
  top: "bbox_inside_weights"
  top: "bbox_outside_weights"
  python_param {
    module: "rpn.proposal_target_layer"
    layer: "ProposalTargetLayer"
    param_str: "\'num_classes\': 2"
  }
}
layer {
  name: "roi_pool_conv5"
  type: "ROIPooling"
  bottom: "conv5"
  bottom: "rois"
  top: "roi_pool_conv5"
  roi_pooling_param {
    pooled_h: 6
    pooled_w: 6
    spatial_scale: 0.0625
  }
}
layer {
  name: "fc6"
  type: "InnerProduct"
  bottom: "roi_pool_conv5"
  top: "fc6"
  param {
    lr_mult: 1
  }
  param {
    lr_mult: 2
  }
  inner_product_param {
    num_output: 4096
  }
}
layer {
  name: "relu6"
  type: "ReLU"
  bottom: "fc6"
  top: "fc6"
}
layer {
  name: "drop6"
  type: "Dropout"
  bottom: "fc6"
  top: "fc6"
  dropout_param {
    dropout_ratio: 0.5
    scale_train: false
  }
}
layer {
  name: "fc7"
  type: "InnerProduct"
  bottom: "fc6"
  top: "fc7"
  param {
    lr_mult: 1
  }
  param {
    lr_mult: 2
  }
  inner_product_param {
    num_output: 4096
  }
}
layer {
  name: "relu7"
  type: "ReLU"
  bottom: "fc7"
  top: "fc7"
}
layer {
  name: "drop7"
  type: "Dropout"
  bottom: "fc7"
  top: "fc7"
  dropout_param {
    dropout_ratio: 0.5
    scale_train: false
  }
}
layer {
  name: "cls_score_basketball"
  type: "InnerProduct"
  bottom: "fc7"
  top: "cls_score"
  param {
    lr_mult: 1
  }
  param {
    lr_mult: 2
  }
  inner_product_param {
    num_output: 2
    weight_filler {
      type: "gaussian"
      std: 0.01
    }
    bias_filler {
      type: "constant"
      value: 0
    }
  }
}
layer {
  name: "bbox_pred_basketball"
  type: "InnerProduct"
  bottom: "fc7"
  top: "bbox_pred"
  param {
    lr_mult: 1
  }
  param {
    lr_mult: 2
  }
  inner_product_param {
    num_output: 8
    weight_filler {
      type: "gaussian"
      std: 0.001
    }
    bias_filler {
      type: "constant"
      value: 0
    }
  }
}
layer {
  name: "loss_cls"
  type: "SoftmaxWithLoss"
  bottom: "cls_score"
  bottom: "labels"
  top: "cls_loss"
  loss_weight: 1
  propagate_down: true
  propagate_down: false
  loss_param {
    ignore_label: -1
    normalize: true
  }
}
layer {
  name: "loss_bbox"
  type: "SmoothL1Loss"
  bottom: "bbox_pred"
  bottom: "bbox_targets"
  bottom: "bbox_inside_weights"
  bottom: "bbox_outside_weights"
  top: "bbox_loss"
  loss_weight: 1
}
I0109 14:50:43.179631  4725 layer_factory.hpp:77] Creating layer input-data
I0109 14:50:43.218876  4725 net.cpp:106] Creating Layer input-data
I0109 14:50:43.218907  4725 net.cpp:411] input-data -> data
I0109 14:50:43.218924  4725 net.cpp:411] input-data -> im_info
I0109 14:50:43.218935  4725 net.cpp:411] input-data -> gt_boxes
RoiDataLayer: name_to_top: {'gt_boxes': 2, 'data': 0, 'im_info': 1}
I0109 14:50:43.230233  4725 net.cpp:150] Setting up input-data
I0109 14:50:43.230262  4725 net.cpp:157] Top shape: 1 3 600 1000 (1800000)
I0109 14:50:43.230269  4725 net.cpp:157] Top shape: 1 3 (3)
I0109 14:50:43.230273  4725 net.cpp:157] Top shape: 1 4 (4)
I0109 14:50:43.230276  4725 net.cpp:165] Memory required for data: 7200028
I0109 14:50:43.230281  4725 layer_factory.hpp:77] Creating layer data_input-data_0_split
I0109 14:50:43.230306  4725 net.cpp:106] Creating Layer data_input-data_0_split
I0109 14:50:43.230327  4725 net.cpp:454] data_input-data_0_split <- data
I0109 14:50:43.230339  4725 net.cpp:411] data_input-data_0_split -> data_input-data_0_split_0
I0109 14:50:43.230346  4725 net.cpp:411] data_input-data_0_split -> data_input-data_0_split_1
I0109 14:50:43.230401  4725 net.cpp:150] Setting up data_input-data_0_split
I0109 14:50:43.230424  4725 net.cpp:157] Top shape: 1 3 600 1000 (1800000)
I0109 14:50:43.230432  4725 net.cpp:157] Top shape: 1 3 600 1000 (1800000)
I0109 14:50:43.230434  4725 net.cpp:165] Memory required for data: 21600028
I0109 14:50:43.230450  4725 layer_factory.hpp:77] Creating layer im_info_input-data_1_split
I0109 14:50:43.230461  4725 net.cpp:106] Creating Layer im_info_input-data_1_split
I0109 14:50:43.230479  4725 net.cpp:454] im_info_input-data_1_split <- im_info
I0109 14:50:43.230492  4725 net.cpp:411] im_info_input-data_1_split -> im_info_input-data_1_split_0
I0109 14:50:43.230502  4725 net.cpp:411] im_info_input-data_1_split -> im_info_input-data_1_split_1
I0109 14:50:43.230553  4725 net.cpp:150] Setting up im_info_input-data_1_split
I0109 14:50:43.230576  4725 net.cpp:157] Top shape: 1 3 (3)
I0109 14:50:43.230583  4725 net.cpp:157] Top shape: 1 3 (3)
I0109 14:50:43.230587  4725 net.cpp:165] Memory required for data: 21600052
I0109 14:50:43.230589  4725 layer_factory.hpp:77] Creating layer gt_boxes_input-data_2_split
I0109 14:50:43.230598  4725 net.cpp:106] Creating Layer gt_boxes_input-data_2_split
I0109 14:50:43.230613  4725 net.cpp:454] gt_boxes_input-data_2_split <- gt_boxes
I0109 14:50:43.230628  4725 net.cpp:411] gt_boxes_input-data_2_split -> gt_boxes_input-data_2_split_0
I0109 14:50:43.230636  4725 net.cpp:411] gt_boxes_input-data_2_split -> gt_boxes_input-data_2_split_1
I0109 14:50:43.230689  4725 net.cpp:150] Setting up gt_boxes_input-data_2_split
I0109 14:50:43.230711  4725 net.cpp:157] Top shape: 1 4 (4)
I0109 14:50:43.230720  4725 net.cpp:157] Top shape: 1 4 (4)
I0109 14:50:43.230721  4725 net.cpp:165] Memory required for data: 21600084
I0109 14:50:43.230726  4725 layer_factory.hpp:77] Creating layer conv1
I0109 14:50:43.230743  4725 net.cpp:106] Creating Layer conv1
I0109 14:50:43.230760  4725 net.cpp:454] conv1 <- data_input-data_0_split_0
I0109 14:50:43.230772  4725 net.cpp:411] conv1 -> conv1
I0109 14:50:43.232458  4725 net.cpp:150] Setting up conv1
I0109 14:50:43.232484  4725 net.cpp:157] Top shape: 1 96 300 500 (14400000)
I0109 14:50:43.232491  4725 net.cpp:165] Memory required for data: 79200084
I0109 14:50:43.232518  4725 layer_factory.hpp:77] Creating layer relu1
I0109 14:50:43.232542  4725 net.cpp:106] Creating Layer relu1
I0109 14:50:43.232563  4725 net.cpp:454] relu1 <- conv1
I0109 14:50:43.232587  4725 net.cpp:397] relu1 -> conv1 (in-place)
I0109 14:50:43.232612  4725 net.cpp:150] Setting up relu1
I0109 14:50:43.232635  4725 net.cpp:157] Top shape: 1 96 300 500 (14400000)
I0109 14:50:43.232641  4725 net.cpp:165] Memory required for data: 136800084
I0109 14:50:43.232645  4725 layer_factory.hpp:77] Creating layer norm1
I0109 14:50:43.232655  4725 net.cpp:106] Creating Layer norm1
I0109 14:50:43.232671  4725 net.cpp:454] norm1 <- conv1
I0109 14:50:43.232683  4725 net.cpp:411] norm1 -> norm1
I0109 14:50:43.232785  4725 net.cpp:150] Setting up norm1
I0109 14:50:43.232805  4725 net.cpp:157] Top shape: 1 96 300 500 (14400000)
I0109 14:50:43.232811  4725 net.cpp:165] Memory required for data: 194400084
I0109 14:50:43.232815  4725 layer_factory.hpp:77] Creating layer pool1
I0109 14:50:43.232826  4725 net.cpp:106] Creating Layer pool1
I0109 14:50:43.232832  4725 net.cpp:454] pool1 <- norm1
I0109 14:50:43.232837  4725 net.cpp:411] pool1 -> pool1
I0109 14:50:43.232873  4725 net.cpp:150] Setting up pool1
I0109 14:50:43.232892  4725 net.cpp:157] Top shape: 1 96 151 251 (3638496)
I0109 14:50:43.232898  4725 net.cpp:165] Memory required for data: 208954068
I0109 14:50:43.232902  4725 layer_factory.hpp:77] Creating layer conv2
I0109 14:50:43.232913  4725 net.cpp:106] Creating Layer conv2
I0109 14:50:43.232930  4725 net.cpp:454] conv2 <- pool1
I0109 14:50:43.232944  4725 net.cpp:411] conv2 -> conv2
I0109 14:50:43.234882  4725 net.cpp:150] Setting up conv2
I0109 14:50:43.234908  4725 net.cpp:157] Top shape: 1 256 76 126 (2451456)
I0109 14:50:43.234915  4725 net.cpp:165] Memory required for data: 218759892
I0109 14:50:43.234936  4725 layer_factory.hpp:77] Creating layer relu2
I0109 14:50:43.234956  4725 net.cpp:106] Creating Layer relu2
I0109 14:50:43.234982  4725 net.cpp:454] relu2 <- conv2
I0109 14:50:43.235004  4725 net.cpp:397] relu2 -> conv2 (in-place)
I0109 14:50:43.235028  4725 net.cpp:150] Setting up relu2
I0109 14:50:43.235049  4725 net.cpp:157] Top shape: 1 256 76 126 (2451456)
I0109 14:50:43.235056  4725 net.cpp:165] Memory required for data: 228565716
I0109 14:50:43.235059  4725 layer_factory.hpp:77] Creating layer norm2
I0109 14:50:43.235069  4725 net.cpp:106] Creating Layer norm2
I0109 14:50:43.235085  4725 net.cpp:454] norm2 <- conv2
I0109 14:50:43.235100  4725 net.cpp:411] norm2 -> norm2
I0109 14:50:43.235188  4725 net.cpp:150] Setting up norm2
I0109 14:50:43.235230  4725 net.cpp:157] Top shape: 1 256 76 126 (2451456)
I0109 14:50:43.235239  4725 net.cpp:165] Memory required for data: 238371540
I0109 14:50:43.235242  4725 layer_factory.hpp:77] Creating layer pool2
I0109 14:50:43.235252  4725 net.cpp:106] Creating Layer pool2
I0109 14:50:43.235268  4725 net.cpp:454] pool2 <- norm2
I0109 14:50:43.235280  4725 net.cpp:411] pool2 -> pool2
I0109 14:50:43.235330  4725 net.cpp:150] Setting up pool2
I0109 14:50:43.235354  4725 net.cpp:157] Top shape: 1 256 39 64 (638976)
I0109 14:50:43.235360  4725 net.cpp:165] Memory required for data: 240927444
I0109 14:50:43.235363  4725 layer_factory.hpp:77] Creating layer conv3
I0109 14:50:43.235374  4725 net.cpp:106] Creating Layer conv3
I0109 14:50:43.235389  4725 net.cpp:454] conv3 <- pool2
I0109 14:50:43.235404  4725 net.cpp:411] conv3 -> conv3
I0109 14:50:43.239323  4725 net.cpp:150] Setting up conv3
I0109 14:50:43.239349  4725 net.cpp:157] Top shape: 1 384 39 64 (958464)
I0109 14:50:43.239356  4725 net.cpp:165] Memory required for data: 244761300
I0109 14:50:43.239368  4725 layer_factory.hpp:77] Creating layer relu3
I0109 14:50:43.239375  4725 net.cpp:106] Creating Layer relu3
I0109 14:50:43.239387  4725 net.cpp:454] relu3 <- conv3
I0109 14:50:43.239405  4725 net.cpp:397] relu3 -> conv3 (in-place)
I0109 14:50:43.239413  4725 net.cpp:150] Setting up relu3
I0109 14:50:43.239418  4725 net.cpp:157] Top shape: 1 384 39 64 (958464)
I0109 14:50:43.239420  4725 net.cpp:165] Memory required for data: 248595156
I0109 14:50:43.239423  4725 layer_factory.hpp:77] Creating layer conv4
I0109 14:50:43.239431  4725 net.cpp:106] Creating Layer conv4
I0109 14:50:43.239434  4725 net.cpp:454] conv4 <- conv3
I0109 14:50:43.239441  4725 net.cpp:411] conv4 -> conv4
I0109 14:50:43.243242  4725 net.cpp:150] Setting up conv4
I0109 14:50:43.243273  4725 net.cpp:157] Top shape: 1 384 39 64 (958464)
I0109 14:50:43.243278  4725 net.cpp:165] Memory required for data: 252429012
I0109 14:50:43.243286  4725 layer_factory.hpp:77] Creating layer relu4
I0109 14:50:43.243294  4725 net.cpp:106] Creating Layer relu4
I0109 14:50:43.243299  4725 net.cpp:454] relu4 <- conv4
I0109 14:50:43.243304  4725 net.cpp:397] relu4 -> conv4 (in-place)
I0109 14:50:43.243312  4725 net.cpp:150] Setting up relu4
I0109 14:50:43.243320  4725 net.cpp:157] Top shape: 1 384 39 64 (958464)
I0109 14:50:43.243324  4725 net.cpp:165] Memory required for data: 256262868
I0109 14:50:43.243326  4725 layer_factory.hpp:77] Creating layer conv5
I0109 14:50:43.243340  4725 net.cpp:106] Creating Layer conv5
I0109 14:50:43.243343  4725 net.cpp:454] conv5 <- conv4
I0109 14:50:43.243348  4725 net.cpp:411] conv5 -> conv5
I0109 14:50:43.246011  4725 net.cpp:150] Setting up conv5
I0109 14:50:43.246040  4725 net.cpp:157] Top shape: 1 256 39 64 (638976)
I0109 14:50:43.246047  4725 net.cpp:165] Memory required for data: 258818772
I0109 14:50:43.246069  4725 layer_factory.hpp:77] Creating layer relu5
I0109 14:50:43.246095  4725 net.cpp:106] Creating Layer relu5
I0109 14:50:43.246111  4725 net.cpp:454] relu5 <- conv5
I0109 14:50:43.246130  4725 net.cpp:397] relu5 -> conv5 (in-place)
I0109 14:50:43.246141  4725 net.cpp:150] Setting up relu5
I0109 14:50:43.246160  4725 net.cpp:157] Top shape: 1 256 39 64 (638976)
I0109 14:50:43.246167  4725 net.cpp:165] Memory required for data: 261374676
I0109 14:50:43.246171  4725 layer_factory.hpp:77] Creating layer conv5_relu5_0_split
I0109 14:50:43.246194  4725 net.cpp:106] Creating Layer conv5_relu5_0_split
I0109 14:50:43.246213  4725 net.cpp:454] conv5_relu5_0_split <- conv5
I0109 14:50:43.246227  4725 net.cpp:411] conv5_relu5_0_split -> conv5_relu5_0_split_0
I0109 14:50:43.246246  4725 net.cpp:411] conv5_relu5_0_split -> conv5_relu5_0_split_1
I0109 14:50:43.246290  4725 net.cpp:150] Setting up conv5_relu5_0_split
I0109 14:50:43.246311  4725 net.cpp:157] Top shape: 1 256 39 64 (638976)
I0109 14:50:43.246318  4725 net.cpp:157] Top shape: 1 256 39 64 (638976)
I0109 14:50:43.246321  4725 net.cpp:165] Memory required for data: 266486484
I0109 14:50:43.246336  4725 layer_factory.hpp:77] Creating layer rpn_conv/3x3
I0109 14:50:43.246373  4725 net.cpp:106] Creating Layer rpn_conv/3x3
I0109 14:50:43.246385  4725 net.cpp:454] rpn_conv/3x3 <- conv5_relu5_0_split_0
I0109 14:50:43.246394  4725 net.cpp:411] rpn_conv/3x3 -> rpn/output
I0109 14:50:43.253675  4725 net.cpp:150] Setting up rpn_conv/3x3
I0109 14:50:43.253706  4725 net.cpp:157] Top shape: 1 256 39 64 (638976)
I0109 14:50:43.253712  4725 net.cpp:165] Memory required for data: 269042388
I0109 14:50:43.253720  4725 layer_factory.hpp:77] Creating layer rpn_relu/3x3
I0109 14:50:43.253731  4725 net.cpp:106] Creating Layer rpn_relu/3x3
I0109 14:50:43.253737  4725 net.cpp:454] rpn_relu/3x3 <- rpn/output
I0109 14:50:43.253743  4725 net.cpp:397] rpn_relu/3x3 -> rpn/output (in-place)
I0109 14:50:43.253760  4725 net.cpp:150] Setting up rpn_relu/3x3
I0109 14:50:43.253765  4725 net.cpp:157] Top shape: 1 256 39 64 (638976)
I0109 14:50:43.253767  4725 net.cpp:165] Memory required for data: 271598292
I0109 14:50:43.253770  4725 layer_factory.hpp:77] Creating layer rpn/output_rpn_relu/3x3_0_split
I0109 14:50:43.253777  4725 net.cpp:106] Creating Layer rpn/output_rpn_relu/3x3_0_split
I0109 14:50:43.253779  4725 net.cpp:454] rpn/output_rpn_relu/3x3_0_split <- rpn/output
I0109 14:50:43.253787  4725 net.cpp:411] rpn/output_rpn_relu/3x3_0_split -> rpn/output_rpn_relu/3x3_0_split_0
I0109 14:50:43.253795  4725 net.cpp:411] rpn/output_rpn_relu/3x3_0_split -> rpn/output_rpn_relu/3x3_0_split_1
I0109 14:50:43.253832  4725 net.cpp:150] Setting up rpn/output_rpn_relu/3x3_0_split
I0109 14:50:43.253854  4725 net.cpp:157] Top shape: 1 256 39 64 (638976)
I0109 14:50:43.253859  4725 net.cpp:157] Top shape: 1 256 39 64 (638976)
I0109 14:50:43.253862  4725 net.cpp:165] Memory required for data: 276710100
I0109 14:50:43.253866  4725 layer_factory.hpp:77] Creating layer rpn_cls_score
I0109 14:50:43.253880  4725 net.cpp:106] Creating Layer rpn_cls_score
I0109 14:50:43.253898  4725 net.cpp:454] rpn_cls_score <- rpn/output_rpn_relu/3x3_0_split_0
I0109 14:50:43.253922  4725 net.cpp:411] rpn_cls_score -> rpn_cls_score
I0109 14:50:43.254212  4725 net.cpp:150] Setting up rpn_cls_score
I0109 14:50:43.254236  4725 net.cpp:157] Top shape: 1 18 39 64 (44928)
I0109 14:50:43.254242  4725 net.cpp:165] Memory required for data: 276889812
I0109 14:50:43.254250  4725 layer_factory.hpp:77] Creating layer rpn_cls_score_rpn_cls_score_0_split
I0109 14:50:43.254258  4725 net.cpp:106] Creating Layer rpn_cls_score_rpn_cls_score_0_split
I0109 14:50:43.254262  4725 net.cpp:454] rpn_cls_score_rpn_cls_score_0_split <- rpn_cls_score
I0109 14:50:43.254288  4725 net.cpp:411] rpn_cls_score_rpn_cls_score_0_split -> rpn_cls_score_rpn_cls_score_0_split_0
I0109 14:50:43.254315  4725 net.cpp:411] rpn_cls_score_rpn_cls_score_0_split -> rpn_cls_score_rpn_cls_score_0_split_1
I0109 14:50:43.254359  4725 net.cpp:150] Setting up rpn_cls_score_rpn_cls_score_0_split
I0109 14:50:43.254384  4725 net.cpp:157] Top shape: 1 18 39 64 (44928)
I0109 14:50:43.254390  4725 net.cpp:157] Top shape: 1 18 39 64 (44928)
I0109 14:50:43.254393  4725 net.cpp:165] Memory required for data: 277249236
I0109 14:50:43.254396  4725 layer_factory.hpp:77] Creating layer rpn_bbox_pred
I0109 14:50:43.254425  4725 net.cpp:106] Creating Layer rpn_bbox_pred
I0109 14:50:43.254434  4725 net.cpp:454] rpn_bbox_pred <- rpn/output_rpn_relu/3x3_0_split_1
I0109 14:50:43.254444  4725 net.cpp:411] rpn_bbox_pred -> rpn_bbox_pred
I0109 14:50:43.254743  4725 net.cpp:150] Setting up rpn_bbox_pred
I0109 14:50:43.254763  4725 net.cpp:157] Top shape: 1 36 39 64 (89856)
I0109 14:50:43.254770  4725 net.cpp:165] Memory required for data: 277608660
I0109 14:50:43.254776  4725 layer_factory.hpp:77] Creating layer rpn_bbox_pred_rpn_bbox_pred_0_split
I0109 14:50:43.254786  4725 net.cpp:106] Creating Layer rpn_bbox_pred_rpn_bbox_pred_0_split
I0109 14:50:43.254789  4725 net.cpp:454] rpn_bbox_pred_rpn_bbox_pred_0_split <- rpn_bbox_pred
I0109 14:50:43.254799  4725 net.cpp:411] rpn_bbox_pred_rpn_bbox_pred_0_split -> rpn_bbox_pred_rpn_bbox_pred_0_split_0
I0109 14:50:43.254822  4725 net.cpp:411] rpn_bbox_pred_rpn_bbox_pred_0_split -> rpn_bbox_pred_rpn_bbox_pred_0_split_1
I0109 14:50:43.254863  4725 net.cpp:150] Setting up rpn_bbox_pred_rpn_bbox_pred_0_split
I0109 14:50:43.254884  4725 net.cpp:157] Top shape: 1 36 39 64 (89856)
I0109 14:50:43.254890  4725 net.cpp:157] Top shape: 1 36 39 64 (89856)
I0109 14:50:43.254894  4725 net.cpp:165] Memory required for data: 278327508
I0109 14:50:43.254896  4725 layer_factory.hpp:77] Creating layer rpn_cls_score_reshape
I0109 14:50:43.254909  4725 net.cpp:106] Creating Layer rpn_cls_score_reshape
I0109 14:50:43.254912  4725 net.cpp:454] rpn_cls_score_reshape <- rpn_cls_score_rpn_cls_score_0_split_0
I0109 14:50:43.254940  4725 net.cpp:411] rpn_cls_score_reshape -> rpn_cls_score_reshape
I0109 14:50:43.254976  4725 net.cpp:150] Setting up rpn_cls_score_reshape
I0109 14:50:43.254995  4725 net.cpp:157] Top shape: 1 2 351 64 (44928)
I0109 14:50:43.255000  4725 net.cpp:165] Memory required for data: 278507220
I0109 14:50:43.255004  4725 layer_factory.hpp:77] Creating layer rpn_cls_score_reshape_rpn_cls_score_reshape_0_split
I0109 14:50:43.255015  4725 net.cpp:106] Creating Layer rpn_cls_score_reshape_rpn_cls_score_reshape_0_split
I0109 14:50:43.255022  4725 net.cpp:454] rpn_cls_score_reshape_rpn_cls_score_reshape_0_split <- rpn_cls_score_reshape
I0109 14:50:43.255030  4725 net.cpp:411] rpn_cls_score_reshape_rpn_cls_score_reshape_0_split -> rpn_cls_score_reshape_rpn_cls_score_reshape_0_split_0
I0109 14:50:43.255053  4725 net.cpp:411] rpn_cls_score_reshape_rpn_cls_score_reshape_0_split -> rpn_cls_score_reshape_rpn_cls_score_reshape_0_split_1
I0109 14:50:43.255095  4725 net.cpp:150] Setting up rpn_cls_score_reshape_rpn_cls_score_reshape_0_split
I0109 14:50:43.255115  4725 net.cpp:157] Top shape: 1 2 351 64 (44928)
I0109 14:50:43.255120  4725 net.cpp:157] Top shape: 1 2 351 64 (44928)
I0109 14:50:43.255123  4725 net.cpp:165] Memory required for data: 278866644
I0109 14:50:43.255127  4725 layer_factory.hpp:77] Creating layer rpn-data
I0109 14:50:43.255743  4725 net.cpp:106] Creating Layer rpn-data
I0109 14:50:43.255765  4725 net.cpp:454] rpn-data <- rpn_cls_score_rpn_cls_score_0_split_1
I0109 14:50:43.255775  4725 net.cpp:454] rpn-data <- gt_boxes_input-data_2_split_0
I0109 14:50:43.255782  4725 net.cpp:454] rpn-data <- im_info_input-data_1_split_0
I0109 14:50:43.255786  4725 net.cpp:454] rpn-data <- data_input-data_0_split_1
I0109 14:50:43.255792  4725 net.cpp:411] rpn-data -> rpn_labels
I0109 14:50:43.255825  4725 net.cpp:411] rpn-data -> rpn_bbox_targets
I0109 14:50:43.255852  4725 net.cpp:411] rpn-data -> rpn_bbox_inside_weights
I0109 14:50:43.255864  4725 net.cpp:411] rpn-data -> rpn_bbox_outside_weights
I0109 14:50:43.257479  4725 net.cpp:150] Setting up rpn-data
I0109 14:50:43.257508  4725 net.cpp:157] Top shape: 1 1 351 64 (22464)
I0109 14:50:43.257515  4725 net.cpp:157] Top shape: 1 36 39 64 (89856)
I0109 14:50:43.257521  4725 net.cpp:157] Top shape: 1 36 39 64 (89856)
I0109 14:50:43.257525  4725 net.cpp:157] Top shape: 1 36 39 64 (89856)
I0109 14:50:43.257529  4725 net.cpp:165] Memory required for data: 280034772
I0109 14:50:43.257532  4725 layer_factory.hpp:77] Creating layer rpn_loss_cls
I0109 14:50:43.257555  4725 net.cpp:106] Creating Layer rpn_loss_cls
I0109 14:50:43.257563  4725 net.cpp:454] rpn_loss_cls <- rpn_cls_score_reshape_rpn_cls_score_reshape_0_split_0
I0109 14:50:43.257570  4725 net.cpp:454] rpn_loss_cls <- rpn_labels
…
I0109 14:50:43.258627  4725 net.cpp:157] Top shape: (1)
I0109 14:50:43.258635  4725 net.cpp:160]     with loss weight 1
I0109 14:50:43.258641  4725 net.cpp:165] Memory required for data: 280034780
I0109 14:50:43.258646  4725 layer_factory.hpp:77] Creating layer rpn_cls_prob
I0109 14:50:43.258656  4725 net.cpp:106] Creating Layer rpn_cls_prob
I0109 14:50:43.258672  4725 net.cpp:454] rpn_cls_prob <- rpn_cls_score_reshape_rpn_cls_score_reshape_0_split_1
I0109 14:50:43.258682  4725 net.cpp:411] rpn_cls_prob -> rpn_cls_prob
I0109 14:50:43.258745  4725 net.cpp:150] Setting up rpn_cls_prob
I0109 14:50:43.258765  4725 net.cpp:157] Top shape: 1 2 351 64 (44928)
I0109 14:50:43.258771  4725 net.cpp:165] Memory required for data: 280214492
I0109 14:50:43.258774  4725 layer_factory.hpp:77] Creating layer rpn_cls_prob_reshape
I0109 14:50:43.258795  4725 net.cpp:106] Creating Layer rpn_cls_prob_reshape
I0109 14:50:43.258811  4725 net.cpp:454] rpn_cls_prob_reshape <- rpn_cls_prob
I0109 14:50:43.258822  4725 net.cpp:411] rpn_cls_prob_reshape -> rpn_cls_prob_reshape
I0109 14:50:43.258867  4725 net.cpp:150] Setting up rpn_cls_prob_reshape
I0109 14:50:43.258890  4725 net.cpp:157] Top shape: 1 18 39 64 (44928)
I0109 14:50:43.258896  4725 net.cpp:165] Memory required for data: 280394204
I0109 14:50:43.258900  4725 layer_factory.hpp:77] Creating layer proposal
I0109 14:50:43.259716  4725 net.cpp:106] Creating Layer proposal
I0109 14:50:43.259739  4725 net.cpp:454] proposal <- rpn_cls_prob_reshape
I0109 14:50:43.259748  4725 net.cpp:454] proposal <- rpn_bbox_pred_rpn_bbox_pred_0_split_1
I0109 14:50:43.259755  4725 net.cpp:454] proposal <- im_info_input-data_1_split_1
I0109 14:50:43.259763  4725 net.cpp:411] proposal -> rpn_rois
I0109 14:50:43.260452  4725 net.cpp:150] Setting up proposal
I0109 14:50:43.260479  4725 net.cpp:157] Top shape: 1 5 (5)
I0109 14:50:43.260485  4725 net.cpp:165] Memory required for data: 280394224
I0109 14:50:43.260502  4725 layer_factory.hpp:77] Creating layer roi-data
I0109 14:50:43.260680  4725 net.cpp:106] Creating Layer roi-data
I0109 14:50:43.260704  4725 net.cpp:454] roi-data <- rpn_rois
I0109 14:50:43.260712  4725 net.cpp:454] roi-data <- gt_boxes_input-data_2_split_1
I0109 14:50:43.260732  4725 net.cpp:411] roi-data -> rois
I0109 14:50:43.260754  4725 net.cpp:411] roi-data -> labels
I0109 14:50:43.260766  4725 net.cpp:411] roi-data -> bbox_targets
I0109 14:50:43.260788  4725 net.cpp:411] roi-data -> bbox_inside_weights
I0109 14:50:43.260798  4725 net.cpp:411] roi-data -> bbox_outside_weights
I0109 14:50:43.261188  4725 net.cpp:150] Setting up roi-data
I0109 14:50:43.261214  4725 net.cpp:157] Top shape: 1 5 (5)
I0109 14:50:43.261220  4725 net.cpp:157] Top shape: 1 1 (1)
I0109 14:50:43.261224  4725 net.cpp:157] Top shape: 1 8 (8)
I0109 14:50:43.261229  4725 net.cpp:157] Top shape: 1 8 (8)
I0109 14:50:43.261232  4725 net.cpp:157] Top shape: 1 8 (8)
I0109 14:50:43.261235  4725 net.cpp:165] Memory required for data: 280394344
I0109 14:50:43.261238  4725 layer_factory.hpp:77] Creating layer roi_pool_conv5
I0109 14:50:43.261260  4725 net.cpp:106] Creating Layer roi_pool_conv5
I0109 14:50:43.261268  4725 net.cpp:454] roi_pool_conv5 <- conv5_relu5_0_split_1
I0109 14:50:43.261273  4725 net.cpp:454] roi_pool_conv5 <- rois
I0109 14:50:43.261281  4725 net.cpp:411] roi_pool_conv5 -> roi_pool_conv5
I0109 14:50:43.261302  4725 roi_pooling_layer.cpp:30] Spatial scale: 0.0625
I0109 14:50:43.261358  4725 net.cpp:150] Setting up roi_pool_conv5
I0109 14:50:43.261380  4725 net.cpp:157] Top shape: 1 256 6 6 (9216)
I0109 14:50:43.261386  4725 net.cpp:165] Memory required for data: 280431208
I0109 14:50:43.261390  4725 layer_factory.hpp:77] Creating layer fc6
I0109 14:50:43.261401  4725 net.cpp:106] Creating Layer fc6
I0109 14:50:43.261422  4725 net.cpp:454] fc6 <- roi_pool_conv5
I0109 14:50:43.261432  4725 net.cpp:411] fc6 -> fc6
I0109 14:50:43.395148  4725 net.cpp:150] Setting up fc6
I0109 14:50:43.395205  4725 net.cpp:157] Top shape: 1 4096 (4096)
I0109 14:50:43.395211  4725 net.cpp:165] Memory required for data: 280447592
I0109 14:50:43.395237  4725 layer_factory.hpp:77] Creating layer relu6
I0109 14:50:43.395256  4725 net.cpp:106] Creating Layer relu6
I0109 14:50:43.395262  4725 net.cpp:454] relu6 <- fc6
I0109 14:50:43.395269  4725 net.cpp:397] relu6 -> fc6 (in-place)
I0109 14:50:43.395282  4725 net.cpp:150] Setting up relu6
I0109 14:50:43.395289  4725 net.cpp:157] Top shape: 1 4096 (4096)
I0109 14:50:43.395292  4725 net.cpp:165] Memory required for data: 280463976
I0109 14:50:43.395295  4725 layer_factory.hpp:77] Creating layer drop6
I0109 14:50:43.395303  4725 net.cpp:106] Creating Layer drop6
I0109 14:50:43.395305  4725 net.cpp:454] drop6 <- fc6
I0109 14:50:43.395309  4725 net.cpp:397] drop6 -> fc6 (in-place)
I0109 14:50:43.395339  4725 net.cpp:150] Setting up drop6
I0109 14:50:43.395359  4725 net.cpp:157] Top shape: 1 4096 (4096)
I0109 14:50:43.395364  4725 net.cpp:165] Memory required for data: 280480360
I0109 14:50:43.395367  4725 layer_factory.hpp:77] Creating layer fc7
I0109 14:50:43.395377  4725 net.cpp:106] Creating Layer fc7
I0109 14:50:43.395380  4725 net.cpp:454] fc7 <- fc6
I0109 14:50:43.395390  4725 net.cpp:411] fc7 -> fc7
I0109 14:50:43.455987  4725 net.cpp:150] Setting up fc7
I0109 14:50:43.456043  4725 net.cpp:157] Top shape: 1 4096 (4096)
I0109 14:50:43.456048  4725 net.cpp:165] Memory required for data: 280496744
I0109 14:50:43.456063  4725 layer_factory.hpp:77] Creating layer relu7
I0109 14:50:43.456082  4725 net.cpp:106] Creating Layer relu7
I0109 14:50:43.456109  4725 net.cpp:454] relu7 <- fc7
I0109 14:50:43.456120  4725 net.cpp:397] relu7 -> fc7 (in-place)
I0109 14:50:43.456131  4725 net.cpp:150] Setting up relu7
I0109 14:50:43.456135  4725 net.cpp:157] Top shape: 1 4096 (4096)
I0109 14:50:43.456142  4725 net.cpp:165] Memory required for data: 280513128
I0109 14:50:43.456146  4725 layer_factory.hpp:77] Creating layer drop7
I0109 14:50:43.456152  4725 net.cpp:106] Creating Layer drop7
I0109 14:50:43.456156  4725 net.cpp:454] drop7 <- fc7
I0109 14:50:43.456162  4725 net.cpp:397] drop7 -> fc7 (in-place)
I0109 14:50:43.456188  4725 net.cpp:150] Setting up drop7
I0109 14:50:43.456207  4725 net.cpp:157] Top shape: 1 4096 (4096)
I0109 14:50:43.456212  4725 net.cpp:165] Memory required for data: 280529512
I0109 14:50:43.456217  4725 layer_factory.hpp:77] Creating layer fc7_drop7_0_split
I0109 14:50:43.456228  4725 net.cpp:106] Creating Layer fc7_drop7_0_split
I0109 14:50:43.456231  4725 net.cpp:454] fc7_drop7_0_split <- fc7
I0109 14:50:43.456238  4725 net.cpp:411] fc7_drop7_0_split -> fc7_drop7_0_split_0
I0109 14:50:43.456248  4725 net.cpp:411] fc7_drop7_0_split -> fc7_drop7_0_split_1
I0109 14:50:43.456295  4725 net.cpp:150] Setting up fc7_drop7_0_split
I0109 14:50:43.456301  4725 net.cpp:157] Top shape: 1 4096 (4096)
I0109 14:50:43.456305  4725 net.cpp:157] Top shape: 1 4096 (4096)
I0109 14:50:43.456306  4725 net.cpp:165] Memory required for data: 280562280
I0109 14:50:43.456310  4725 layer_factory.hpp:77] Creating layer cls_score_basketball
I0109 14:50:43.456320  4725 net.cpp:106] Creating Layer cls_score_basketball
I0109 14:50:43.456324  4725 net.cpp:454] cls_score_basketball <- fc7_drop7_0_split_0
I0109 14:50:43.456333  4725 net.cpp:411] cls_score_basketball -> cls_score
I0109 14:50:43.456553  4725 net.cpp:150] Setting up cls_score_basketball
I0109 14:50:43.456578  4725 net.cpp:157] Top shape: 1 2 (2)
I0109 14:50:43.456583  4725 net.cpp:165] Memory required for data: 280562288
I0109 14:50:43.456589  4725 layer_factory.hpp:77] Creating layer bbox_pred_basketball
I0109 14:50:43.456600  4725 net.cpp:106] Creating Layer bbox_pred_basketball
I0109 14:50:43.456607  4725 net.cpp:454] bbox_pred_basketball <- fc7_drop7_0_split_1
I0109 14:50:43.456612  4725 net.cpp:411] bbox_pred_basketball -> bbox_pred
I0109 14:50:43.457051  4725 net.cpp:150] Setting up bbox_pred_basketball
I0109 14:50:43.457072  4725 net.cpp:157] Top shape: 1 8 (8)
I0109 14:50:43.457077  4725 net.cpp:165] Memory required for data: 280562320
I0109 14:50:43.457083  4725 layer_factory.hpp:77] Creating layer loss_cls
I0109 14:50:43.457093  4725 net.cpp:106] Creating Layer loss_cls
I0109 14:50:43.457099  4725 net.cpp:454] loss_cls <- cls_score
I0109 14:50:43.457104  4725 net.cpp:454] loss_cls <- labels
I0109 14:50:43.457109  4725 net.cpp:411] loss_cls -> cls_loss
…
