I0123 10:02:35.242686 16195 net.cpp:157] Top shape: 1 256 39 64 (638976)
I0123 10:02:35.242692 16195 net.cpp:165] Memory required for data: 261374676
I0123 10:02:35.242702 16195 layer_factory.hpp:77] Creating layer conv5_relu5_0_s                                   plit
I0123 10:02:35.242717 16195 net.cpp:106] Creating Layer conv5_relu5_0_split
I0123 10:02:35.242727 16195 net.cpp:454] conv5_relu5_0_split <- conv5
I0123 10:02:35.242738 16195 net.cpp:411] conv5_relu5_0_split -> conv5_relu5_0_sp                                   lit_0
I0123 10:02:35.242749 16195 net.cpp:411] conv5_relu5_0_split -> conv5_relu5_0_sp                                   lit_1
I0123 10:02:35.242795 16195 net.cpp:150] Setting up conv5_relu5_0_split
I0123 10:02:35.242807 16195 net.cpp:157] Top shape: 1 256 39 64 (638976)
I0123 10:02:35.242821 16195 net.cpp:157] Top shape: 1 256 39 64 (638976)
I0123 10:02:35.242833 16195 net.cpp:165] Memory required for data: 266486484
I0123 10:02:35.242837 16195 layer_factory.hpp:77] Creating layer rpn_conv/3x3
I0123 10:02:35.242861 16195 net.cpp:106] Creating Layer rpn_conv/3x3
I0123 10:02:35.242872 16195 net.cpp:454] rpn_conv/3x3 <- conv5_relu5_0_split_0
I0123 10:02:35.242892 16195 net.cpp:411] rpn_conv/3x3 -> rpn/output
I0123 10:02:35.250047 16195 net.cpp:150] Setting up rpn_conv/3x3
I0123 10:02:35.250068 16195 net.cpp:157] Top shape: 1 256 39 64 (638976)
I0123 10:02:35.250079 16195 net.cpp:165] Memory required for data: 269042388
I0123 10:02:35.250087 16195 layer_factory.hpp:77] Creating layer rpn_relu/3x3
I0123 10:02:35.250100 16195 net.cpp:106] Creating Layer rpn_relu/3x3
I0123 10:02:35.250109 16195 net.cpp:454] rpn_relu/3x3 <- rpn/output
I0123 10:02:35.250115 16195 net.cpp:397] rpn_relu/3x3 -> rpn/output (in-place)
I0123 10:02:35.250128 16195 net.cpp:150] Setting up rpn_relu/3x3
I0123 10:02:35.250138 16195 net.cpp:157] Top shape: 1 256 39 64 (638976)
I0123 10:02:35.250140 16195 net.cpp:165] Memory required for data: 271598292
I0123 10:02:35.250149 16195 layer_factory.hpp:77] Creating layer rpn/output_rpn_                                   relu/3x3_0_split
I0123 10:02:35.250155 16195 net.cpp:106] Creating Layer rpn/output_rpn_relu/3x3_                                   0_split
I0123 10:02:35.250164 16195 net.cpp:454] rpn/output_rpn_relu/3x3_0_split <- rpn/                                   output
I0123 10:02:35.250172 16195 net.cpp:411] rpn/output_rpn_relu/3x3_0_split -> rpn/                                   output_rpn_relu/3x3_0_split_0
I0123 10:02:35.250185 16195 net.cpp:411] rpn/output_rpn_relu/3x3_0_split -> rpn/                                   output_rpn_relu/3x3_0_split_1
I0123 10:02:35.250243 16195 net.cpp:150] Setting up rpn/output_rpn_relu/3x3_0_sp                                   lit
I0123 10:02:35.250254 16195 net.cpp:157] Top shape: 1 256 39 64 (638976)
I0123 10:02:35.250264 16195 net.cpp:157] Top shape: 1 256 39 64 (638976)
I0123 10:02:35.250275 16195 net.cpp:165] Memory required for data: 276710100
I0123 10:02:35.250291 16195 layer_factory.hpp:77] Creating layer rpn_cls_score
I0123 10:02:35.250316 16195 net.cpp:106] Creating Layer rpn_cls_score
I0123 10:02:35.250325 16195 net.cpp:454] rpn_cls_score <- rpn/output_rpn_relu/3x                                   3_0_split_0
I0123 10:02:35.250332 16195 net.cpp:411] rpn_cls_score -> rpn_cls_score
I0123 10:02:35.250598 16195 net.cpp:150] Setting up rpn_cls_score
I0123 10:02:35.250610 16195 net.cpp:157] Top shape: 1 18 39 64 (44928)
I0123 10:02:35.250618 16195 net.cpp:165] Memory required for data: 276889812
I0123 10:02:35.250634 16195 layer_factory.hpp:77] Creating layer rpn_cls_score_r                                   pn_cls_score_0_split
I0123 10:02:35.250649 16195 net.cpp:106] Creating Layer rpn_cls_score_rpn_cls_sc                                   ore_0_split
I0123 10:02:35.250658 16195 net.cpp:454] rpn_cls_score_rpn_cls_score_0_split <-                                    rpn_cls_score
I0123 10:02:35.250676 16195 net.cpp:411] rpn_cls_score_rpn_cls_score_0_split ->                                    rpn_cls_score_rpn_cls_score_0_split_0
I0123 10:02:35.250690 16195 net.cpp:411] rpn_cls_score_rpn_cls_score_0_split ->                                    rpn_cls_score_rpn_cls_score_0_split_1
I0123 10:02:35.250739 16195 net.cpp:150] Setting up rpn_cls_score_rpn_cls_score_                                   0_split
I0123 10:02:35.250751 16195 net.cpp:157] Top shape: 1 18 39 64 (44928)
I0123 10:02:35.250758 16195 net.cpp:157] Top shape: 1 18 39 64 (44928)
I0123 10:02:35.250769 16195 net.cpp:165] Memory required for data: 277249236
I0123 10:02:35.250782 16195 layer_factory.hpp:77] Creating layer rpn_bbox_pred
I0123 10:02:35.250794 16195 net.cpp:106] Creating Layer rpn_bbox_pred
I0123 10:02:35.250802 16195 net.cpp:454] rpn_bbox_pred <- rpn/output_rpn_relu/3x                                   3_0_split_1
I0123 10:02:35.250809 16195 net.cpp:411] rpn_bbox_pred -> rpn_bbox_pred
I0123 10:02:35.251108 16195 net.cpp:150] Setting up rpn_bbox_pred
I0123 10:02:35.251121 16195 net.cpp:157] Top shape: 1 36 39 64 (89856)
I0123 10:02:35.251128 16195 net.cpp:165] Memory required for data: 277608660
I0123 10:02:35.251143 16195 layer_factory.hpp:77] Creating layer rpn_bbox_pred_r                                   pn_bbox_pred_0_split
I0123 10:02:35.251158 16195 net.cpp:106] Creating Layer rpn_bbox_pred_rpn_bbox_p                                   red_0_split
I0123 10:02:35.251168 16195 net.cpp:454] rpn_bbox_pred_rpn_bbox_pred_0_split <-                                    rpn_bbox_pred
I0123 10:02:35.251184 16195 net.cpp:411] rpn_bbox_pred_rpn_bbox_pred_0_split ->                                    rpn_bbox_pred_rpn_bbox_pred_0_split_0
I0123 10:02:35.251199 16195 net.cpp:411] rpn_bbox_pred_rpn_bbox_pred_0_split ->                                    rpn_bbox_pred_rpn_bbox_pred_0_split_1
I0123 10:02:35.251246 16195 net.cpp:150] Setting up rpn_bbox_pred_rpn_bbox_pred_                                   0_split
I0123 10:02:35.251260 16195 net.cpp:157] Top shape: 1 36 39 64 (89856)
I0123 10:02:35.251266 16195 net.cpp:157] Top shape: 1 36 39 64 (89856)
I0123 10:02:35.251271 16195 net.cpp:165] Memory required for data: 278327508
I0123 10:02:35.251276 16195 layer_factory.hpp:77] Creating layer rpn_cls_score_r                                   eshape
I0123 10:02:35.251291 16195 net.cpp:106] Creating Layer rpn_cls_score_reshape
I0123 10:02:35.251297 16195 net.cpp:454] rpn_cls_score_reshape <- rpn_cls_score_                                   rpn_cls_score_0_split_0
I0123 10:02:35.251308 16195 net.cpp:411] rpn_cls_score_reshape -> rpn_cls_score_                                   reshape
I0123 10:02:35.251346 16195 net.cpp:150] Setting up rpn_cls_score_reshape
I0123 10:02:35.251358 16195 net.cpp:157] Top shape: 1 2 351 64 (44928)
I0123 10:02:35.251363 16195 net.cpp:165] Memory required for data: 278507220
I0123 10:02:35.251369 16195 layer_factory.hpp:77] Creating layer rpn_cls_score_r                                   eshape_rpn_cls_score_reshape_0_split
I0123 10:02:35.251384 16195 net.cpp:106] Creating Layer rpn_cls_score_reshape_rp                                   n_cls_score_reshape_0_split
I0123 10:02:35.251394 16195 net.cpp:454] rpn_cls_score_reshape_rpn_cls_score_res                                   hape_0_split <- rpn_cls_score_reshape
I0123 10:02:35.251408 16195 net.cpp:411] rpn_cls_score_reshape_rpn_cls_score_res                                   hape_0_split -> rpn_cls_score_reshape_rpn_cls_score_reshape_0_split_0
I0123 10:02:35.251421 16195 net.cpp:411] rpn_cls_score_reshape_rpn_cls_score_res                                   hape_0_split -> rpn_cls_score_reshape_rpn_cls_score_reshape_0_split_1
I0123 10:02:35.251463 16195 net.cpp:150] Setting up rpn_cls_score_reshape_rpn_cl                                   s_score_reshape_0_split
I0123 10:02:35.251478 16195 net.cpp:157] Top shape: 1 2 351 64 (44928)
I0123 10:02:35.251485 16195 net.cpp:157] Top shape: 1 2 351 64 (44928)
I0123 10:02:35.251492 16195 net.cpp:165] Memory required for data: 278866644
I0123 10:02:35.251497 16195 layer_factory.hpp:77] Creating layer rpn-data
I0123 10:02:35.252115 16195 net.cpp:106] Creating Layer rpn-data
I0123 10:02:35.252135 16195 net.cpp:454] rpn-data <- rpn_cls_score_rpn_cls_score                                   _0_split_1
I0123 10:02:35.252146 16195 net.cpp:454] rpn-data <- gt_boxes_input-data_2_split                                   _0
I0123 10:02:35.252159 16195 net.cpp:454] rpn-data <- im_info_input-data_1_split_                                   0
I0123 10:02:35.252172 16195 net.cpp:454] rpn-data <- data_input-data_0_split_1
I0123 10:02:35.252187 16195 net.cpp:411] rpn-data -> rpn_labels
I0123 10:02:35.252208 16195 net.cpp:411] rpn-data -> rpn_bbox_targets
I0123 10:02:35.252223 16195 net.cpp:411] rpn-data -> rpn_bbox_inside_weights
I0123 10:02:35.252239 16195 net.cpp:411] rpn-data -> rpn_bbox_outside_weights
I0123 10:02:35.253819 16195 net.cpp:150] Setting up rpn-data
I0123 10:02:35.253845 16195 net.cpp:157] Top shape: 1 1 351 64 (22464)
I0123 10:02:35.253854 16195 net.cpp:157] Top shape: 1 36 39 64 (89856)
I0123 10:02:35.253867 16195 net.cpp:157] Top shape: 1 36 39 64 (89856)
I0123 10:02:35.253880 16195 net.cpp:157] Top shape: 1 36 39 64 (89856)
I0123 10:02:35.253890 16195 net.cpp:165] Memory required for data: 280034772
I0123 10:02:35.253902 16195 layer_factory.hpp:77] Creating layer rpn_loss_cls
I0123 10:02:35.253921 16195 net.cpp:106] Creating Layer rpn_loss_cls
I0123 10:02:35.253931 16195 net.cpp:454] rpn_loss_cls <- rpn_cls_score_reshape_r                                   pn_cls_score_reshape_0_split_0
I0123 10:02:35.253937 16195 net.cpp:454] rpn_loss_cls <- rpn_labels
…
I0123 10:02:35.254972 16195 net.cpp:160]     with loss weight 1
I0123 10:02:35.254982 16195 net.cpp:165] Memory required for data: 280034780
I0123 10:02:35.254997 16195 layer_factory.hpp:77] Creating layer rpn_cls_prob
I0123 10:02:35.255007 16195 net.cpp:106] Creating Layer rpn_cls_prob
I0123 10:02:35.255018 16195 net.cpp:454] rpn_cls_prob <- rpn_cls_score_reshape_r                                   pn_cls_score_reshape_0_split_1
I0123 10:02:35.255028 16195 net.cpp:411] rpn_cls_prob -> rpn_cls_prob
I0123 10:02:35.255087 16195 net.cpp:150] Setting up rpn_cls_prob
I0123 10:02:35.255098 16195 net.cpp:157] Top shape: 1 2 351 64 (44928)
I0123 10:02:35.255102 16195 net.cpp:165] Memory required for data: 280214492
I0123 10:02:35.255110 16195 layer_factory.hpp:77] Creating layer rpn_cls_prob_re                                   shape
I0123 10:02:35.255138 16195 net.cpp:106] Creating Layer rpn_cls_prob_reshape
I0123 10:02:35.255151 16195 net.cpp:454] rpn_cls_prob_reshape <- rpn_cls_prob
I0123 10:02:35.255156 16195 net.cpp:411] rpn_cls_prob_reshape -> rpn_cls_prob_re                                   shape
I0123 10:02:35.255195 16195 net.cpp:150] Setting up rpn_cls_prob_reshape
I0123 10:02:35.255208 16195 net.cpp:157] Top shape: 1 18 39 64 (44928)
I0123 10:02:35.255213 16195 net.cpp:165] Memory required for data: 280394204
I0123 10:02:35.255224 16195 layer_factory.hpp:77] Creating layer proposal
I0123 10:02:35.256055 16195 net.cpp:106] Creating Layer proposal
I0123 10:02:35.256076 16195 net.cpp:454] proposal <- rpn_cls_prob_reshape
I0123 10:02:35.256086 16195 net.cpp:454] proposal <- rpn_bbox_pred_rpn_bbox_pred                                   _0_split_1
I0123 10:02:35.256099 16195 net.cpp:454] proposal <- im_info_input-data_1_split_                                   1
I0123 10:02:35.256117 16195 net.cpp:411] proposal -> rpn_rois
I0123 10:02:35.256839 16195 net.cpp:150] Setting up proposal
I0123 10:02:35.256861 16195 net.cpp:157] Top shape: 1 5 (5)
I0123 10:02:35.256870 16195 net.cpp:165] Memory required for data: 280394224
I0123 10:02:35.256883 16195 layer_factory.hpp:77] Creating layer roi-data
I0123 10:02:35.257064 16195 net.cpp:106] Creating Layer roi-data
I0123 10:02:35.257082 16195 net.cpp:454] roi-data <- rpn_rois
I0123 10:02:35.257092 16195 net.cpp:454] roi-data <- gt_boxes_input-data_2_split                                   _1
I0123 10:02:35.257108 16195 net.cpp:411] roi-data -> rois
I0123 10:02:35.257122 16195 net.cpp:411] roi-data -> labels
I0123 10:02:35.257135 16195 net.cpp:411] roi-data -> bbox_targets
I0123 10:02:35.257148 16195 net.cpp:411] roi-data -> bbox_inside_weights
I0123 10:02:35.257163 16195 net.cpp:411] roi-data -> bbox_outside_weights
I0123 10:02:35.257555 16195 net.cpp:150] Setting up roi-data
I0123 10:02:35.257575 16195 net.cpp:157] Top shape: 1 5 (5)
I0123 10:02:35.257585 16195 net.cpp:157] Top shape: 1 1 (1)
I0123 10:02:35.257596 16195 net.cpp:157] Top shape: 1 8 (8)
I0123 10:02:35.257603 16195 net.cpp:157] Top shape: 1 8 (8)
I0123 10:02:35.257611 16195 net.cpp:157] Top shape: 1 8 (8)
I0123 10:02:35.257616 16195 net.cpp:165] Memory required for data: 280394344
I0123 10:02:35.257624 16195 layer_factory.hpp:77] Creating layer roi_pool_conv5
I0123 10:02:35.257632 16195 net.cpp:106] Creating Layer roi_pool_conv5
I0123 10:02:35.257638 16195 net.cpp:454] roi_pool_conv5 <- conv5_relu5_0_split_1
I0123 10:02:35.257643 16195 net.cpp:454] roi_pool_conv5 <- rois
I0123 10:02:35.257650 16195 net.cpp:411] roi_pool_conv5 -> roi_pool_conv5
I0123 10:02:35.257659 16195 roi_pooling_layer.cpp:30] Spatial scale: 0.0625
I0123 10:02:35.257701 16195 net.cpp:150] Setting up roi_pool_conv5
I0123 10:02:35.257712 16195 net.cpp:157] Top shape: 1 256 6 6 (9216)
I0123 10:02:35.257715 16195 net.cpp:165] Memory required for data: 280431208
I0123 10:02:35.257724 16195 layer_factory.hpp:77] Creating layer fc6
I0123 10:02:35.257741 16195 net.cpp:106] Creating Layer fc6
I0123 10:02:35.257750 16195 net.cpp:454] fc6 <- roi_pool_conv5
I0123 10:02:35.257758 16195 net.cpp:411] fc6 -> fc6
I0123 10:02:35.392426 16195 net.cpp:150] Setting up fc6
I0123 10:02:35.392482 16195 net.cpp:157] Top shape: 1 4096 (4096)
I0123 10:02:35.392489 16195 net.cpp:165] Memory required for data: 280447592
I0123 10:02:35.392530 16195 layer_factory.hpp:77] Creating layer relu6
I0123 10:02:35.392552 16195 net.cpp:106] Creating Layer relu6
I0123 10:02:35.392563 16195 net.cpp:454] relu6 <- fc6
I0123 10:02:35.392573 16195 net.cpp:397] relu6 -> fc6 (in-place)
I0123 10:02:35.392590 16195 net.cpp:150] Setting up relu6
I0123 10:02:35.392596 16195 net.cpp:157] Top shape: 1 4096 (4096)
I0123 10:02:35.392599 16195 net.cpp:165] Memory required for data: 280463976
I0123 10:02:35.392608 16195 layer_factory.hpp:77] Creating layer drop6
I0123 10:02:35.392628 16195 net.cpp:106] Creating Layer drop6
I0123 10:02:35.392635 16195 net.cpp:454] drop6 <- fc6
I0123 10:02:35.392660 16195 net.cpp:397] drop6 -> fc6 (in-place)
I0123 10:02:35.392699 16195 net.cpp:150] Setting up drop6
I0123 10:02:35.392714 16195 net.cpp:157] Top shape: 1 4096 (4096)
I0123 10:02:35.392720 16195 net.cpp:165] Memory required for data: 280480360
I0123 10:02:35.392725 16195 layer_factory.hpp:77] Creating layer fc7
I0123 10:02:35.392747 16195 net.cpp:106] Creating Layer fc7
I0123 10:02:35.392760 16195 net.cpp:454] fc7 <- fc6
I0123 10:02:35.392771 16195 net.cpp:411] fc7 -> fc7
I0123 10:02:35.453897 16195 net.cpp:150] Setting up fc7
I0123 10:02:35.453954 16195 net.cpp:157] Top shape: 1 4096 (4096)
I0123 10:02:35.453958 16195 net.cpp:165] Memory required for data: 280496744
I0123 10:02:35.453984 16195 layer_factory.hpp:77] Creating layer relu7
I0123 10:02:35.454005 16195 net.cpp:106] Creating Layer relu7
I0123 10:02:35.454020 16195 net.cpp:454] relu7 <- fc7
I0123 10:02:35.454038 16195 net.cpp:397] relu7 -> fc7 (in-place)
I0123 10:02:35.454061 16195 net.cpp:150] Setting up relu7
I0123 10:02:35.454075 16195 net.cpp:157] Top shape: 1 4096 (4096)
I0123 10:02:35.454082 16195 net.cpp:165] Memory required for data: 280513128
I0123 10:02:35.454087 16195 layer_factory.hpp:77] Creating layer drop7
I0123 10:02:35.454097 16195 net.cpp:106] Creating Layer drop7
I0123 10:02:35.454103 16195 net.cpp:454] drop7 <- fc7
I0123 10:02:35.454115 16195 net.cpp:397] drop7 -> fc7 (in-place)
I0123 10:02:35.454151 16195 net.cpp:150] Setting up drop7
I0123 10:02:35.454166 16195 net.cpp:157] Top shape: 1 4096 (4096)
I0123 10:02:35.454171 16195 net.cpp:165] Memory required for data: 280529512
I0123 10:02:35.454182 16195 layer_factory.hpp:77] Creating layer fc7_drop7_0_spl                                   it
I0123 10:02:35.454200 16195 net.cpp:106] Creating Layer fc7_drop7_0_split
I0123 10:02:35.454229 16195 net.cpp:454] fc7_drop7_0_split <- fc7
I0123 10:02:35.454241 16195 net.cpp:411] fc7_drop7_0_split -> fc7_drop7_0_split_                                   0
I0123 10:02:35.454254 16195 net.cpp:411] fc7_drop7_0_split -> fc7_drop7_0_split_                                   1
I0123 10:02:35.454324 16195 net.cpp:150] Setting up fc7_drop7_0_split
I0123 10:02:35.454339 16195 net.cpp:157] Top shape: 1 4096 (4096)
I0123 10:02:35.454346 16195 net.cpp:157] Top shape: 1 4096 (4096)
I0123 10:02:35.454356 16195 net.cpp:165] Memory required for data: 280562280
I0123 10:02:35.454363 16195 layer_factory.hpp:77] Creating layer cls_score_baske                                   tball
I0123 10:02:35.454380 16195 net.cpp:106] Creating Layer cls_score_basketball
I0123 10:02:35.454392 16195 net.cpp:454] cls_score_basketball <- fc7_drop7_0_spl                                   it_0
I0123 10:02:35.454404 16195 net.cpp:411] cls_score_basketball -> cls_score
I0123 10:02:35.454629 16195 net.cpp:150] Setting up cls_score_basketball
I0123 10:02:35.454644 16195 net.cpp:157] Top shape: 1 2 (2)
I0123 10:02:35.454649 16195 net.cpp:165] Memory required for data: 280562288
I0123 10:02:35.454665 16195 layer_factory.hpp:77] Creating layer bbox_pred_baske                                   tball
I0123 10:02:35.454684 16195 net.cpp:106] Creating Layer bbox_pred_basketball
I0123 10:02:35.454689 16195 net.cpp:454] bbox_pred_basketball <- fc7_drop7_0_spl                                   it_1
I0123 10:02:35.454694 16195 net.cpp:411] bbox_pred_basketball -> bbox_pred
I0123 10:02:35.455150 16195 net.cpp:150] Setting up bbox_pred_basketball
I0123 10:02:35.455163 16195 net.cpp:157] Top shape: 1 8 (8)
I0123 10:02:35.455166 16195 net.cpp:165] Memory required for data: 280562320
I0123 10:02:35.455179 16195 layer_factory.hpp:77] Creating layer loss_cls
I0123 10:02:35.455199 16195 net.cpp:106] Creating Layer loss_cls
I0123 10:02:35.455207 16195 net.cpp:454] loss_cls <- cls_score
I0123 10:02:35.455214 16195 net.cpp:454] loss_cls <- labels
I0123 10:02:35.455225 16195 net.cpp:411] loss_cls -> cls_loss
…
snapshot_prefix: "basketballDet"
average_loss: 100
iter_size: 2
I0123 10:04:04.038497 16276 solver.cpp:81] Creating training net from train_net                                    file: models/basketball/train.prototxt
I0123 10:04:04.039127 16276 net.cpp:49] Initializing net from parameters:
name: "ZF"
state {
  phase: TRAIN
}
layer {
  name: "input-data"
  type: "Python"
  top: "data"
  top: "im_info"
  top: "gt_boxes"
  python_param {
    module: "roi_data_layer.layer"
    layer: "RoIDataLayer"
    param_str: "\'num_classes\': 2"
  }
}
layer {
  name: "conv1"
  type: "Convolution"
  bottom: "data"
  top: "conv1"
  param {
    lr_mult: 1
  }
  param {
    lr_mult: 2
  }
  convolution_param {
    num_output: 96
    pad: 3
    kernel_size: 7
    stride: 2
  }
}
layer {
  name: "relu1"
  type: "ReLU"
  bottom: "conv1"
  top: "conv1"
}
layer {
  name: "norm1"
  type: "LRN"
  bottom: "conv1"
  top: "norm1"
  lrn_param {
    local_size: 3
    alpha: 5e-05
    beta: 0.75
    norm_region: WITHIN_CHANNEL
    engine: CAFFE
  }
}
layer {
  name: "pool1"
  type: "Pooling"
  bottom: "norm1"
  top: "pool1"
  pooling_param {
    pool: MAX
    kernel_size: 3
    stride: 2
    pad: 1
  }
}
layer {
  name: "conv2"
  type: "Convolution"
  bottom: "pool1"
  top: "conv2"
  param {
    lr_mult: 1
  }
  param {
    lr_mult: 2
  }
  convolution_param {
    num_output: 256
    pad: 2
    kernel_size: 5
    stride: 2
  }
}
layer {
  name: "relu2"
  type: "ReLU"
  bottom: "conv2"
  top: "conv2"
}
layer {
  name: "norm2"
  type: "LRN"
  bottom: "conv2"
  top: "norm2"
  lrn_param {
    local_size: 3
    alpha: 5e-05
    beta: 0.75
    norm_region: WITHIN_CHANNEL
    engine: CAFFE
  }
}
layer {
  name: "pool2"
  type: "Pooling"
  bottom: "norm2"
  top: "pool2"
  pooling_param {
    pool: MAX
    kernel_size: 3
    stride: 2
    pad: 1
  }
}
layer {
  name: "conv3"
  type: "Convolution"
  bottom: "pool2"
  top: "conv3"
  param {
    lr_mult: 1
  }
  param {
    lr_mult: 2
  }
  convolution_param {
    num_output: 384
    pad: 1
    kernel_size: 3
    stride: 1
  }
}
layer {
  name: "relu3"
  type: "ReLU"
  bottom: "conv3"
  top: "conv3"
}
layer {
  name: "conv4"
  type: "Convolution"
  bottom: "conv3"
  top: "conv4"
  param {
    lr_mult: 1
  }
  param {
    lr_mult: 2
  }
  convolution_param {
    num_output: 384
    pad: 1
    kernel_size: 3
    stride: 1
  }
}
layer {
  name: "relu4"
  type: "ReLU"
  bottom: "conv4"
  top: "conv4"
}
layer {
  name: "conv5"
  type: "Convolution"
  bottom: "conv4"
  top: "conv5"
  param {
    lr_mult: 1
  }
  param {
    lr_mult: 2
  }
  convolution_param {
    num_output: 256
    pad: 1
    kernel_size: 3
    stride: 1
  }
}
layer {
  name: "relu5"
  type: "ReLU"
  bottom: "conv5"
  top: "conv5"
}
layer {
  name: "rpn_conv/3x3"
  type: "Convolution"
  bottom: "conv5"
  top: "rpn/output"
  param {
    lr_mult: 1
  }
  param {
    lr_mult: 2
  }
  convolution_param {
    num_output: 256
    pad: 1
    kernel_size: 3
    stride: 1
    weight_filler {
      type: "gaussian"
      std: 0.01
    }
    bias_filler {
      type: "constant"
      value: 0
    }
  }
}
layer {
  name: "rpn_relu/3x3"
  type: "ReLU"
  bottom: "rpn/output"
  top: "rpn/output"
}
layer {
  name: "rpn_cls_score"
  type: "Convolution"
  bottom: "rpn/output"
  top: "rpn_cls_score"
  param {
    lr_mult: 1
  }
  param {
    lr_mult: 2
  }
  convolution_param {
    num_output: 18
    pad: 0
    kernel_size: 1
    stride: 1
    weight_filler {
      type: "gaussian"
      std: 0.01
    }
    bias_filler {
      type: "constant"
      value: 0
    }
  }
}
layer {
  name: "rpn_bbox_pred"
  type: "Convolution"
  bottom: "rpn/output"
  top: "rpn_bbox_pred"
  param {
    lr_mult: 1
  }
  param {
    lr_mult: 2
  }
  convolution_param {
    num_output: 36
    pad: 0
    kernel_size: 1
    stride: 1
    weight_filler {
      type: "gaussian"
      std: 0.01
    }
    bias_filler {
      type: "constant"
      value: 0
    }
  }
}
layer {
  name: "rpn_cls_score_reshape"
  type: "Reshape"
  bottom: "rpn_cls_score"
  top: "rpn_cls_score_reshape"
  reshape_param {
    shape {
      dim: 0
      dim: 2
      dim: -1
      dim: 0
    }
  }
}
layer {
  name: "rpn-data"
  type: "Python"
  bottom: "rpn_cls_score"
  bottom: "gt_boxes"
  bottom: "im_info"
  bottom: "data"
  top: "rpn_labels"
  top: "rpn_bbox_targets"
  top: "rpn_bbox_inside_weights"
  top: "rpn_bbox_outside_weights"
  python_param {
    module: "rpn.anchor_target_layer"
    layer: "AnchorTargetLayer"
    param_str: "\'feat_stride\': 16"
  }
}
layer {
  name: "rpn_loss_cls"
  type: "SoftmaxWithLoss"
  bottom: "rpn_cls_score_reshape"
  bottom: "rpn_labels"
  top: "rpn_cls_loss"
  loss_weight: 1
  propagate_down: true
  propagate_down: false
  loss_param {
    ignore_label: -1
    normalize: true
  }
}
layer {
  name: "rpn_loss_bbox"
  type: "SmoothL1Loss"
  bottom: "rpn_bbox_pred"
  bottom: "rpn_bbox_targets"
  bottom: "rpn_bbox_inside_weights"
  bottom: "rpn_bbox_outside_weights"
  top: "rpn_loss_bbox"
  loss_weight: 1
  smooth_l1_loss_param {
    sigma: 3
  }
}
layer {
  name: "rpn_cls_prob"
  type: "Softmax"
  bottom: "rpn_cls_score_reshape"
  top: "rpn_cls_prob"
}
layer {
  name: "rpn_cls_prob_reshape"
  type: "Reshape"
  bottom: "rpn_cls_prob"
  top: "rpn_cls_prob_reshape"
  reshape_param {
    shape {
      dim: 0
      dim: 18
      dim: -1
      dim: 0
    }
  }
}
layer {
  name: "proposal"
  type: "Python"
  bottom: "rpn_cls_prob_reshape"
  bottom: "rpn_bbox_pred"
  bottom: "im_info"
  top: "rpn_rois"
  python_param {
    module: "rpn.proposal_layer"
    layer: "ProposalLayer"
    param_str: "\'feat_stride\': 16"
  }
}
layer {
  name: "roi-data"
  type: "Python"
  bottom: "rpn_rois"
  bottom: "gt_boxes"
  top: "rois"
  top: "labels"
  top: "bbox_targets"
  top: "bbox_inside_weights"
  top: "bbox_outside_weights"
  python_param {
    module: "rpn.proposal_target_layer"
    layer: "ProposalTargetLayer"
    param_str: "\'num_classes\': 2"
  }
}
layer {
  name: "roi_pool_conv5"
  type: "ROIPooling"
  bottom: "conv5"
  bottom: "rois"
  top: "roi_pool_conv5"
  roi_pooling_param {
    pooled_h: 6
    pooled_w: 6
    spatial_scale: 0.0625
  }
}
layer {
  name: "fc6"
  type: "InnerProduct"
  bottom: "roi_pool_conv5"
  top: "fc6"
  param {
    lr_mult: 1
  }
  param {
    lr_mult: 2
  }
  inner_product_param {
    num_output: 4096
  }
}
layer {
  name: "relu6"
  type: "ReLU"
  bottom: "fc6"
  top: "fc6"
}
layer {
  name: "drop6"
  type: "Dropout"
  bottom: "fc6"
  top: "fc6"
  dropout_param {
    dropout_ratio: 0.5
    scale_train: false
  }
}
layer {
  name: "fc7"
  type: "InnerProduct"
  bottom: "fc6"
  top: "fc7"
  param {
    lr_mult: 1
  }
  param {
    lr_mult: 2
  }
  inner_product_param {
    num_output: 4096
  }
}
layer {
  name: "relu7"
  type: "ReLU"
  bottom: "fc7"
  top: "fc7"
}
layer {
  name: "drop7"
  type: "Dropout"
  bottom: "fc7"
  top: "fc7"
  dropout_param {
    dropout_ratio: 0.5
    scale_train: false
  }
}
layer {
  name: "cls_score"
  type: "InnerProduct"
  bottom: "fc7"
  top: "cls_score"
  param {
    lr_mult: 1
  }
  param {
    lr_mult: 2
  }
  inner_product_param {
    num_output: 2
    weight_filler {
      type: "gaussian"
      std: 0.01
    }
    bias_filler {
      type: "constant"
      value: 0
    }
  }
}
layer {
  name: "bbox_pred"
  type: "InnerProduct"
  bottom: "fc7"
  top: "bbox_pred"
  param {
    lr_mult: 1
  }
  param {
    lr_mult: 2
  }
  inner_product_param {
    num_output: 8
    weight_filler {
      type: "gaussian"
      std: 0.001
    }
    bias_filler {
      type: "constant"
      value: 0
    }
  }
}
layer {
  name: "loss_cls"
  type: "SoftmaxWithLoss"
  bottom: "cls_score"
  bottom: "labels"
  top: "cls_loss"
  loss_weight: 1
  propagate_down: true
  propagate_down: false
  loss_param {
    ignore_label: -1
    normalize: true
  }
}
layer {
  name: "loss_bbox"
  type: "SmoothL1Loss"
  bottom: "bbox_pred"
  bottom: "bbox_targets"
  bottom: "bbox_inside_weights"
  bottom: "bbox_outside_weights"
  top: "bbox_loss"
  loss_weight: 1
}
I0123 10:04:04.039721 16276 layer_factory.hpp:77] Creating layer input-data
I0123 10:04:04.080468 16276 net.cpp:106] Creating Layer input-data
I0123 10:04:04.080516 16276 net.cpp:411] input-data -> data
I0123 10:04:04.080539 16276 net.cpp:411] input-data -> im_info
I0123 10:04:04.080554 16276 net.cpp:411] input-data -> gt_boxes
RoiDataLayer: name_to_top: {'gt_boxes': 2, 'data': 0, 'im_info': 1}
I0123 10:04:04.092166 16276 net.cpp:150] Setting up input-data
I0123 10:04:04.092200 16276 net.cpp:157] Top shape: 1 3 600 1000 (1800000)
I0123 10:04:04.092211 16276 net.cpp:157] Top shape: 1 3 (3)
I0123 10:04:04.092218 16276 net.cpp:157] Top shape: 1 4 (4)
I0123 10:04:04.092275 16276 net.cpp:165] Memory required for data: 7200028
I0123 10:04:04.092291 16276 layer_factory.hpp:77] Creating layer data_input-data                                   _0_split
I0123 10:04:04.092319 16276 net.cpp:106] Creating Layer data_input-data_0_split
I0123 10:04:04.092350 16276 net.cpp:454] data_input-data_0_split <- data
I0123 10:04:04.092370 16276 net.cpp:411] data_input-data_0_split -> data_input-d                                   ata_0_split_0
I0123 10:04:04.092398 16276 net.cpp:411] data_input-data_0_split -> data_input-d                                   ata_0_split_1
I0123 10:04:04.092478 16276 net.cpp:150] Setting up data_input-data_0_split
I0123 10:04:04.092497 16276 net.cpp:157] Top shape: 1 3 600 1000 (1800000)
I0123 10:04:04.092511 16276 net.cpp:157] Top shape: 1 3 600 1000 (1800000)
I0123 10:04:04.092525 16276 net.cpp:165] Memory required for data: 21600028
I0123 10:04:04.092528 16276 layer_factory.hpp:77] Creating layer im_info_input-d                                   ata_1_split
I0123 10:04:04.092542 16276 net.cpp:106] Creating Layer im_info_input-data_1_spl                                   it
I0123 10:04:04.092550 16276 net.cpp:454] im_info_input-data_1_split <- im_info
I0123 10:04:04.092571 16276 net.cpp:411] im_info_input-data_1_split -> im_info_i                                   nput-data_1_split_0
I0123 10:04:04.092598 16276 net.cpp:411] im_info_input-data_1_split -> im_info_i                                   nput-data_1_split_1
I0123 10:04:04.092686 16276 net.cpp:150] Setting up im_info_input-data_1_split
I0123 10:04:04.092701 16276 net.cpp:157] Top shape: 1 3 (3)
I0123 10:04:04.092708 16276 net.cpp:157] Top shape: 1 3 (3)
I0123 10:04:04.092718 16276 net.cpp:165] Memory required for data: 21600052
I0123 10:04:04.092736 16276 layer_factory.hpp:77] Creating layer gt_boxes_input-                                   data_2_split
I0123 10:04:04.092746 16276 net.cpp:106] Creating Layer gt_boxes_input-data_2_sp                                   lit
I0123 10:04:04.092754 16276 net.cpp:454] gt_boxes_input-data_2_split <- gt_boxes
I0123 10:04:04.092761 16276 net.cpp:411] gt_boxes_input-data_2_split -> gt_boxes                                   _input-data_2_split_0
I0123 10:04:04.092784 16276 net.cpp:411] gt_boxes_input-data_2_split -> gt_boxes                                   _input-data_2_split_1
I0123 10:04:04.092847 16276 net.cpp:150] Setting up gt_boxes_input-data_2_split
I0123 10:04:04.092861 16276 net.cpp:157] Top shape: 1 4 (4)
I0123 10:04:04.092871 16276 net.cpp:157] Top shape: 1 4 (4)
I0123 10:04:04.092882 16276 net.cpp:165] Memory required for data: 21600084
I0123 10:04:04.092895 16276 layer_factory.hpp:77] Creating layer conv1
I0123 10:04:04.092936 16276 net.cpp:106] Creating Layer conv1
I0123 10:04:04.092952 16276 net.cpp:454] conv1 <- data_input-data_0_split_0
I0123 10:04:04.092967 16276 net.cpp:411] conv1 -> conv1
I0123 10:04:04.094624 16276 net.cpp:150] Setting up conv1
I0123 10:04:04.094645 16276 net.cpp:157] Top shape: 1 96 300 500 (14400000)
I0123 10:04:04.094655 16276 net.cpp:165] Memory required for data: 79200084
I0123 10:04:04.094667 16276 layer_factory.hpp:77] Creating layer relu1
I0123 10:04:04.094684 16276 net.cpp:106] Creating Layer relu1
I0123 10:04:04.094693 16276 net.cpp:454] relu1 <- conv1
I0123 10:04:04.094699 16276 net.cpp:397] relu1 -> conv1 (in-place)
I0123 10:04:04.094725 16276 net.cpp:150] Setting up relu1
I0123 10:04:04.094758 16276 net.cpp:157] Top shape: 1 96 300 500 (14400000)
I0123 10:04:04.094766 16276 net.cpp:165] Memory required for data: 136800084
I0123 10:04:04.094770 16276 layer_factory.hpp:77] Creating layer norm1
I0123 10:04:04.094789 16276 net.cpp:106] Creating Layer norm1
I0123 10:04:04.094799 16276 net.cpp:454] norm1 <- conv1
I0123 10:04:04.094805 16276 net.cpp:411] norm1 -> norm1
I0123 10:04:04.094913 16276 net.cpp:150] Setting up norm1
I0123 10:04:04.094924 16276 net.cpp:157] Top shape: 1 96 300 500 (14400000)
I0123 10:04:04.094933 16276 net.cpp:165] Memory required for data: 194400084
I0123 10:04:04.094945 16276 layer_factory.hpp:77] Creating layer pool1
I0123 10:04:04.094956 16276 net.cpp:106] Creating Layer pool1
I0123 10:04:04.094969 16276 net.cpp:454] pool1 <- norm1
I0123 10:04:04.094985 16276 net.cpp:411] pool1 -> pool1
I0123 10:04:04.095028 16276 net.cpp:150] Setting up pool1
I0123 10:04:04.095041 16276 net.cpp:157] Top shape: 1 96 151 251 (3638496)
I0123 10:04:04.095048 16276 net.cpp:165] Memory required for data: 208954068
I0123 10:04:04.095059 16276 layer_factory.hpp:77] Creating layer conv2
I0123 10:04:04.095077 16276 net.cpp:106] Creating Layer conv2
I0123 10:04:04.095083 16276 net.cpp:454] conv2 <- pool1
I0123 10:04:04.095093 16276 net.cpp:411] conv2 -> conv2
I0123 10:04:04.097034 16276 net.cpp:150] Setting up conv2
I0123 10:04:04.097055 16276 net.cpp:157] Top shape: 1 256 76 126 (2451456)
I0123 10:04:04.097065 16276 net.cpp:165] Memory required for data: 218759892
I0123 10:04:04.097079 16276 layer_factory.hpp:77] Creating layer relu2
I0123 10:04:04.097091 16276 net.cpp:106] Creating Layer relu2
I0123 10:04:04.097101 16276 net.cpp:454] relu2 <- conv2
I0123 10:04:04.097115 16276 net.cpp:397] relu2 -> conv2 (in-place)
I0123 10:04:04.097128 16276 net.cpp:150] Setting up relu2
I0123 10:04:04.097137 16276 net.cpp:157] Top shape: 1 256 76 126 (2451456)
I0123 10:04:04.097143 16276 net.cpp:165] Memory required for data: 228565716
I0123 10:04:04.097154 16276 layer_factory.hpp:77] Creating layer norm2
I0123 10:04:04.097172 16276 net.cpp:106] Creating Layer norm2
I0123 10:04:04.097182 16276 net.cpp:454] norm2 <- conv2
I0123 10:04:04.097187 16276 net.cpp:411] norm2 -> norm2
I0123 10:04:04.097281 16276 net.cpp:150] Setting up norm2
I0123 10:04:04.097293 16276 net.cpp:157] Top shape: 1 256 76 126 (2451456)
I0123 10:04:04.097301 16276 net.cpp:165] Memory required for data: 238371540
I0123 10:04:04.097313 16276 layer_factory.hpp:77] Creating layer pool2
I0123 10:04:04.097327 16276 net.cpp:106] Creating Layer pool2
I0123 10:04:04.097339 16276 net.cpp:454] pool2 <- norm2
I0123 10:04:04.097355 16276 net.cpp:411] pool2 -> pool2
I0123 10:04:04.097403 16276 net.cpp:150] Setting up pool2
I0123 10:04:04.097416 16276 net.cpp:157] Top shape: 1 256 39 64 (638976)
I0123 10:04:04.097421 16276 net.cpp:165] Memory required for data: 240927444
I0123 10:04:04.097432 16276 layer_factory.hpp:77] Creating layer conv3
I0123 10:04:04.097450 16276 net.cpp:106] Creating Layer conv3
I0123 10:04:04.097460 16276 net.cpp:454] conv3 <- pool2
I0123 10:04:04.097465 16276 net.cpp:411] conv3 -> conv3
I0123 10:04:04.101327 16276 net.cpp:150] Setting up conv3
I0123 10:04:04.101348 16276 net.cpp:157] Top shape: 1 384 39 64 (958464)
I0123 10:04:04.101361 16276 net.cpp:165] Memory required for data: 244761300
I0123 10:04:04.101372 16276 layer_factory.hpp:77] Creating layer relu3
I0123 10:04:04.101387 16276 net.cpp:106] Creating Layer relu3
I0123 10:04:04.101397 16276 net.cpp:454] relu3 <- conv3
I0123 10:04:04.101402 16276 net.cpp:397] relu3 -> conv3 (in-place)
I0123 10:04:04.101414 16276 net.cpp:150] Setting up relu3
I0123 10:04:04.101424 16276 net.cpp:157] Top shape: 1 384 39 64 (958464)
I0123 10:04:04.101428 16276 net.cpp:165] Memory required for data: 248595156
I0123 10:04:04.101435 16276 layer_factory.hpp:77] Creating layer conv4
I0123 10:04:04.101446 16276 net.cpp:106] Creating Layer conv4
I0123 10:04:04.101455 16276 net.cpp:454] conv4 <- conv3
I0123 10:04:04.101461 16276 net.cpp:411] conv4 -> conv4
I0123 10:04:04.105185 16276 net.cpp:150] Setting up conv4
I0123 10:04:04.105206 16276 net.cpp:157] Top shape: 1 384 39 64 (958464)
I0123 10:04:04.105218 16276 net.cpp:165] Memory required for data: 252429012
I0123 10:04:04.105226 16276 layer_factory.hpp:77] Creating layer relu4
I0123 10:04:04.105237 16276 net.cpp:106] Creating Layer relu4
I0123 10:04:04.105247 16276 net.cpp:454] relu4 <- conv4
I0123 10:04:04.105257 16276 net.cpp:397] relu4 -> conv4 (in-place)
I0123 10:04:04.105268 16276 net.cpp:150] Setting up relu4
I0123 10:04:04.105278 16276 net.cpp:157] Top shape: 1 384 39 64 (958464)
I0123 10:04:04.105281 16276 net.cpp:165] Memory required for data: 256262868
I0123 10:04:04.105290 16276 layer_factory.hpp:77] Creating layer conv5
I0123 10:04:04.105304 16276 net.cpp:106] Creating Layer conv5
I0123 10:04:04.105312 16276 net.cpp:454] conv5 <- conv4
I0123 10:04:04.105321 16276 net.cpp:411] conv5 -> conv5
I0123 10:04:04.107926 16276 net.cpp:150] Setting up conv5
I0123 10:04:04.107946 16276 net.cpp:157] Top shape: 1 256 39 64 (638976)
I0123 10:04:04.107955 16276 net.cpp:165] Memory required for data: 258818772
I0123 10:04:04.107966 16276 layer_factory.hpp:77] Creating layer relu5
I0123 10:04:04.107977 16276 net.cpp:106] Creating Layer relu5
I0123 10:04:04.107988 16276 net.cpp:454] relu5 <- conv5
I0123 10:04:04.108011 16276 net.cpp:397] relu5 -> conv5 (in-place)
I0123 10:04:04.108028 16276 net.cpp:150] Setting up relu5
I0123 10:04:04.108042 16276 net.cpp:157] Top shape: 1 256 39 64 (638976)
I0123 10:04:04.108049 16276 net.cpp:165] Memory required for data: 261374676
I0123 10:04:04.108055 16276 layer_factory.hpp:77] Creating layer conv5_relu5_0_s                                   plit
I0123 10:04:04.108067 16276 net.cpp:106] Creating Layer conv5_relu5_0_split
I0123 10:04:04.108077 16276 net.cpp:454] conv5_relu5_0_split <- conv5
I0123 10:04:04.108094 16276 net.cpp:411] conv5_relu5_0_split -> conv5_relu5_0_sp                                   lit_0
I0123 10:04:04.108108 16276 net.cpp:411] conv5_relu5_0_split -> conv5_relu5_0_sp                                   lit_1
I0123 10:04:04.108150 16276 net.cpp:150] Setting up conv5_relu5_0_split
I0123 10:04:04.108165 16276 net.cpp:157] Top shape: 1 256 39 64 (638976)
I0123 10:04:04.108178 16276 net.cpp:157] Top shape: 1 256 39 64 (638976)
I0123 10:04:04.108182 16276 net.cpp:165] Memory required for data: 266486484
I0123 10:04:04.108191 16276 layer_factory.hpp:77] Creating layer rpn_conv/3x3
I0123 10:04:04.108214 16276 net.cpp:106] Creating Layer rpn_conv/3x3
I0123 10:04:04.108227 16276 net.cpp:454] rpn_conv/3x3 <- conv5_relu5_0_split_0
I0123 10:04:04.108238 16276 net.cpp:411] rpn_conv/3x3 -> rpn/output
I0123 10:04:04.115386 16276 net.cpp:150] Setting up rpn_conv/3x3
I0123 10:04:04.115407 16276 net.cpp:157] Top shape: 1 256 39 64 (638976)
I0123 10:04:04.115414 16276 net.cpp:165] Memory required for data: 269042388
I0123 10:04:04.115425 16276 layer_factory.hpp:77] Creating layer rpn_relu/3x3
I0123 10:04:04.115437 16276 net.cpp:106] Creating Layer rpn_relu/3x3
I0123 10:04:04.115445 16276 net.cpp:454] rpn_relu/3x3 <- rpn/output
I0123 10:04:04.115458 16276 net.cpp:397] rpn_relu/3x3 -> rpn/output (in-place)
I0123 10:04:04.115470 16276 net.cpp:150] Setting up rpn_relu/3x3
I0123 10:04:04.115478 16276 net.cpp:157] Top shape: 1 256 39 64 (638976)
I0123 10:04:04.115491 16276 net.cpp:165] Memory required for data: 271598292
I0123 10:04:04.115504 16276 layer_factory.hpp:77] Creating layer rpn/output_rpn_                                   relu/3x3_0_split
I0123 10:04:04.115519 16276 net.cpp:106] Creating Layer rpn/output_rpn_relu/3x3_                                   0_split
I0123 10:04:04.115530 16276 net.cpp:454] rpn/output_rpn_relu/3x3_0_split <- rpn/                                   output
I0123 10:04:04.115545 16276 net.cpp:411] rpn/output_rpn_relu/3x3_0_split -> rpn/                                   output_rpn_relu/3x3_0_split_0
I0123 10:04:04.115561 16276 net.cpp:411] rpn/output_rpn_relu/3x3_0_split -> rpn/                                   output_rpn_relu/3x3_0_split_1
I0123 10:04:04.115602 16276 net.cpp:150] Setting up rpn/output_rpn_relu/3x3_0_sp                                   lit
I0123 10:04:04.115613 16276 net.cpp:157] Top shape: 1 256 39 64 (638976)
I0123 10:04:04.115623 16276 net.cpp:157] Top shape: 1 256 39 64 (638976)
I0123 10:04:04.115634 16276 net.cpp:165] Memory required for data: 276710100
I0123 10:04:04.115648 16276 layer_factory.hpp:77] Creating layer rpn_cls_score
I0123 10:04:04.115671 16276 net.cpp:106] Creating Layer rpn_cls_score
I0123 10:04:04.115684 16276 net.cpp:454] rpn_cls_score <- rpn/output_rpn_relu/3x                                   3_0_split_0
I0123 10:04:04.115695 16276 net.cpp:411] rpn_cls_score -> rpn_cls_score
I0123 10:04:04.115964 16276 net.cpp:150] Setting up rpn_cls_score
I0123 10:04:04.115979 16276 net.cpp:157] Top shape: 1 18 39 64 (44928)
I0123 10:04:04.115985 16276 net.cpp:165] Memory required for data: 276889812
I0123 10:04:04.116000 16276 layer_factory.hpp:77] Creating layer rpn_cls_score_r                                   pn_cls_score_0_split
I0123 10:04:04.116015 16276 net.cpp:106] Creating Layer rpn_cls_score_rpn_cls_sc                                   ore_0_split
I0123 10:04:04.116024 16276 net.cpp:454] rpn_cls_score_rpn_cls_score_0_split <-                                    rpn_cls_score
I0123 10:04:04.116039 16276 net.cpp:411] rpn_cls_score_rpn_cls_score_0_split ->                                    rpn_cls_score_rpn_cls_score_0_split_0
I0123 10:04:04.116058 16276 net.cpp:411] rpn_cls_score_rpn_cls_score_0_split ->                                    rpn_cls_score_rpn_cls_score_0_split_1
I0123 10:04:04.116099 16276 net.cpp:150] Setting up rpn_cls_score_rpn_cls_score_                                   0_split
I0123 10:04:04.116111 16276 net.cpp:157] Top shape: 1 18 39 64 (44928)
I0123 10:04:04.116119 16276 net.cpp:157] Top shape: 1 18 39 64 (44928)
I0123 10:04:04.116132 16276 net.cpp:165] Memory required for data: 277249236
I0123 10:04:04.116143 16276 layer_factory.hpp:77] Creating layer rpn_bbox_pred
I0123 10:04:04.116165 16276 net.cpp:106] Creating Layer rpn_bbox_pred
I0123 10:04:04.116178 16276 net.cpp:454] rpn_bbox_pred <- rpn/output_rpn_relu/3x                                   3_0_split_1
I0123 10:04:04.116189 16276 net.cpp:411] rpn_bbox_pred -> rpn_bbox_pred
I0123 10:04:04.116576 16276 net.cpp:150] Setting up rpn_bbox_pred
I0123 10:04:04.116597 16276 net.cpp:157] Top shape: 1 36 39 64 (89856)
I0123 10:04:04.116608 16276 net.cpp:165] Memory required for data: 277608660
I0123 10:04:04.116626 16276 layer_factory.hpp:77] Creating layer rpn_bbox_pred_r                                   pn_bbox_pred_0_split
I0123 10:04:04.116639 16276 net.cpp:106] Creating Layer rpn_bbox_pred_rpn_bbox_p                                   red_0_split
I0123 10:04:04.116649 16276 net.cpp:454] rpn_bbox_pred_rpn_bbox_pred_0_split <-                                    rpn_bbox_pred
I0123 10:04:04.116664 16276 net.cpp:411] rpn_bbox_pred_rpn_bbox_pred_0_split ->                                    rpn_bbox_pred_rpn_bbox_pred_0_split_0
I0123 10:04:04.116681 16276 net.cpp:411] rpn_bbox_pred_rpn_bbox_pred_0_split ->                                    rpn_bbox_pred_rpn_bbox_pred_0_split_1
I0123 10:04:04.116724 16276 net.cpp:150] Setting up rpn_bbox_pred_rpn_bbox_pred_                                   0_split
I0123 10:04:04.116735 16276 net.cpp:157] Top shape: 1 36 39 64 (89856)
I0123 10:04:04.116744 16276 net.cpp:157] Top shape: 1 36 39 64 (89856)
I0123 10:04:04.116756 16276 net.cpp:165] Memory required for data: 278327508
I0123 10:04:04.116768 16276 layer_factory.hpp:77] Creating layer rpn_cls_score_r                                   eshape
I0123 10:04:04.116787 16276 net.cpp:106] Creating Layer rpn_cls_score_reshape
I0123 10:04:04.116801 16276 net.cpp:454] rpn_cls_score_reshape <- rpn_cls_score_                                   rpn_cls_score_0_split_0
I0123 10:04:04.116811 16276 net.cpp:411] rpn_cls_score_reshape -> rpn_cls_score_                                   reshape
I0123 10:04:04.116849 16276 net.cpp:150] Setting up rpn_cls_score_reshape
I0123 10:04:04.116863 16276 net.cpp:157] Top shape: 1 2 351 64 (44928)
I0123 10:04:04.116868 16276 net.cpp:165] Memory required for data: 278507220
I0123 10:04:04.116879 16276 layer_factory.hpp:77] Creating layer rpn_cls_score_r                                   eshape_rpn_cls_score_reshape_0_split
I0123 10:04:04.116899 16276 net.cpp:106] Creating Layer rpn_cls_score_reshape_rp                                   n_cls_score_reshape_0_split
I0123 10:04:04.116909 16276 net.cpp:454] rpn_cls_score_reshape_rpn_cls_score_res                                   hape_0_split <- rpn_cls_score_reshape
I0123 10:04:04.116914 16276 net.cpp:411] rpn_cls_score_reshape_rpn_cls_score_res                                   hape_0_split -> rpn_cls_score_reshape_rpn_cls_score_reshape_0_split_0
I0123 10:04:04.116926 16276 net.cpp:411] rpn_cls_score_reshape_rpn_cls_score_res                                   hape_0_split -> rpn_cls_score_reshape_rpn_cls_score_reshape_0_split_1
I0123 10:04:04.116966 16276 net.cpp:150] Setting up rpn_cls_score_reshape_rpn_cl                                   s_score_reshape_0_split
I0123 10:04:04.116976 16276 net.cpp:157] Top shape: 1 2 351 64 (44928)
I0123 10:04:04.116986 16276 net.cpp:157] Top shape: 1 2 351 64 (44928)
I0123 10:04:04.116998 16276 net.cpp:165] Memory required for data: 278866644
I0123 10:04:04.117012 16276 layer_factory.hpp:77] Creating layer rpn-data
I0123 10:04:04.117645 16276 net.cpp:106] Creating Layer rpn-data
I0123 10:04:04.117663 16276 net.cpp:454] rpn-data <- rpn_cls_score_rpn_cls_score                                   _0_split_1
I0123 10:04:04.117679 16276 net.cpp:454] rpn-data <- gt_boxes_input-data_2_split                                   _0
I0123 10:04:04.117691 16276 net.cpp:454] rpn-data <- im_info_input-data_1_split_                                   0
I0123 10:04:04.117705 16276 net.cpp:454] rpn-data <- data_input-data_0_split_1
I0123 10:04:04.117717 16276 net.cpp:411] rpn-data -> rpn_labels
I0123 10:04:04.117745 16276 net.cpp:411] rpn-data -> rpn_bbox_targets
I0123 10:04:04.117764 16276 net.cpp:411] rpn-data -> rpn_bbox_inside_weights
I0123 10:04:04.117782 16276 net.cpp:411] rpn-data -> rpn_bbox_outside_weights
I0123 10:04:04.119377 16276 net.cpp:150] Setting up rpn-data
I0123 10:04:04.119401 16276 net.cpp:157] Top shape: 1 1 351 64 (22464)
I0123 10:04:04.119411 16276 net.cpp:157] Top shape: 1 36 39 64 (89856)
I0123 10:04:04.119415 16276 net.cpp:157] Top shape: 1 36 39 64 (89856)
I0123 10:04:04.119424 16276 net.cpp:157] Top shape: 1 36 39 64 (89856)
I0123 10:04:04.119428 16276 net.cpp:165] Memory required for data: 280034772
I0123 10:04:04.119437 16276 layer_factory.hpp:77] Creating layer rpn_loss_cls
I0123 10:04:04.119457 16276 net.cpp:106] Creating Layer rpn_loss_cls
I0123 10:04:04.119469 16276 net.cpp:454] rpn_loss_cls <- rpn_cls_score_reshape_r                                   pn_cls_score_reshape_0_split_0
I0123 10:04:04.119482 16276 net.cpp:454] rpn_loss_cls <- rpn_labels
…
